computer.tflite (tflite, 60832 bytes, 18 tensors)

model_1/dense_1/MatMul i1 [1, 960] scale=0.0025018654 zero_point=0
0	0xd5	-0.107580215
1	0xcf	-0.122591406
2	0xcf	-0.122591406
3	0xc0	-0.16011938
4	0x01	0.0025018654
5	0xc9	-0.1376026
6	0xf4	-0.030022385
7	0x06	0.015011192
8	0xfd	-0.007505596
9	0xc7	-0.14260633
10	0xed	-0.04753544
11	0xdd	-0.08756529
12	0x25	0.092569016
13	0x15	0.052539174
14	0xfa	-0.015011192
15	0x32	0.12509327
16	0x01	0.0025018654
17	0xc6	-0.1451082
18	0xee	-0.045033578
19	0xc7	-0.14260633
20	0xf2	-0.035026114
21	0xcc	-0.130097
22	0xca	-0.13510074
23	0xe7	-0.06254663
24	0xfa	-0.015011192
25	0xdd	-0.08756529
26	0x17	0.057542905
27	0xd2	-0.11508581
28	0xfd	-0.007505596
29	0x07	0.017513057
30	0xf2	-0.035026114
31	0x15	0.052539174
32	0xbf	-0.16262124
33	0xbe	-0.16512312
34	0xff	-0.0025018654
35	0xfa	-0.015011192
36	0xf4	-0.030022385
37	0x1c	0.07005223
38	0xba	-0.17513058
39	0xe3	-0.0725541
40	0xe9	-0.057542905
41	0xf5	-0.027520519
42	0x01	0.0025018654
43	0xfa	-0.015011192
44	0xde	-0.08506342
45	0xdb	-0.092569016
46	0xf9	-0.017513057
47	0xf3	-0.03252425
48	0xfd	-0.007505596
49	0xdb	-0.092569016
50	0xfd	-0.007505596
51	0xdd	-0.08756529
52	0xc6	-0.1451082
53	0xce	-0.12509327
54	0x26	0.09507088
55	0xc9	-0.1376026
56	0xf7	-0.022516789
57	0x08	0.020014923
58	0xda	-0.09507088
59	0xf0	-0.040029846
60	0xdf	-0.08256156
61	0xf7	-0.022516789
62	0xf3	-0.03252425
63	0xe8	-0.06004477
64	0x11	0.04253171
65	0xf7	-0.022516789
66	0xf7	-0.022516789
67	0xe3	-0.0725541
68	0xe9	-0.057542905
69	0xd3	-0.11258394
70	0x02	0.0050037308
71	0x16	0.055041037
72	0xfb	-0.012509327
73	0xcd	-0.12759514
74	0x04	0.0100074615
75	0x03	0.007505596
76	0x27	0.09757275
77	0x07	0.017513057
78	0xfc	-0.0100074615
79	0x1d	0.0725541
80	0xf3	-0.03252425
81	0xf4	-0.030022385
82	0xd6	-0.10507835
83	0xc6	-0.1451082
84	0xf4	-0.030022385
85	0xee	-0.045033578
86	0xfc	-0.0100074615
87	0x01	0.0025018654
88	0x13	0.04753544
89	0xe0	-0.08005969
90	0xf5	-0.027520519
91	0xf1	-0.037527982
92	0xfa	-0.015011192
93	0xee	-0.045033578
94	0xf9	-0.017513057
95	0xf5	-0.027520519
96	0xef	-0.04253171
97	0xda	-0.09507088
98	0xf0	-0.040029846
99	0x0c	0.030022385
100	0xf6	-0.025018655
101	0x1d	0.0725541
102	0xcf	-0.122591406
103	0xdd	-0.08756529
104	0xfe	-0.0050037308
105	0xfa	-0.015011192
106	0xea	-0.055041037
107	0xe5	-0.06755037
108	0xf6	-0.025018655
109	0xf7	-0.022516789
110	0xd8	-0.10007462
111	0xd8	-0.10007462
112	0x1e	0.075055964
113	0x18	0.06004477
114	0xf2	-0.035026114
115	0xe3	-0.0725541
116	0xcf	-0.122591406
117	0xc7	-0.14260633
118	0xea	-0.055041037
119	0xd9	-0.09757275
120	0xd0	-0.12008954
121	0x00	0.0
122	0xbb	-0.17262872
123	0x00	0.0
124	0xe6	-0.0650485
125	0xd6	-0.10507835
126	0xd8	-0.10007462
127	0x0f	0.037527982
128	0xd2	-0.11508581
129	0xd1	-0.11758767
130	0x14	0.05003731
131	0xe6	-0.0650485
132	0x07	0.017513057
133	0xf7	-0.022516789
134	0xe7	-0.06254663
135	0x1f	0.077557825
136	0x08	0.020014923
137	0x2a	0.10507835
138	0x07	0.017513057
139	0xff	-0.0025018654
140	0x23	0.08756529
141	0xc0	-0.16011938
142	0xd5	-0.107580215
143	0x17	0.057542905
144	0xff	-0.0025018654
145	0xc8	-0.14010446
146	0xea	-0.055041037
147	0xed	-0.04753544
148	0xf8	-0.020014923
149	0xdf	-0.08256156
150	0xfa	-0.015011192
151	0xe4	-0.07005223
152	0xed	-0.04753544
153	0xe2	-0.075055964
154	0x0d	0.03252425
155	0x10	0.040029846
156	0xf4	-0.030022385
157	0xe9	-0.057542905
158	0x09	0.022516789
159	0xfa	-0.015011192
160	0x05	0.012509327
161	0xd6	-0.10507835
162	0x1b	0.06755037
163	0xec	-0.05003731
164	0xf3	-0.03252425
165	0xe6	-0.0650485
166	0xe3	-0.0725541
167	0xd4	-0.110082075
168	0xf2	-0.035026114
169	0xc8	-0.14010446
170	0xde	-0.08506342
171	0x15	0.052539174
172	0xf0	-0.040029846
173	0xfd	-0.007505596
174	0xea	-0.055041037
175	0x14	0.05003731
176	0x02	0.0050037308
177	0xe5	-0.06755037
178	0x00	0.0
179	0xf3	-0.03252425
180	0xd0	-0.12008954
181	0xfe	-0.0050037308
182	0xfe	-0.0050037308
183	0xf5	-0.027520519
184	0xc9	-0.1376026
185	0xe6	-0.0650485
186	0xcd	-0.12759514
187	0xef	-0.04253171
188	0xec	-0.05003731
189	0x1a	0.0650485
190	0x0b	0.027520519
191	0x07	0.017513057
192	0xd9	-0.09757275
193	0xee	-0.045033578
194	0xf3	-0.03252425
195	0xd7	-0.10257648
196	0x10	0.040029846
197	0xf1	-0.037527982
198	0x27	0.09757275
199	0x07	0.017513057
200	0xe8	-0.06004477
201	0xf4	-0.030022385
202	0xed	-0.04753544
203	0xe1	-0.077557825
204	0x15	0.052539174
205	0xbc	-0.17012684
206	0xf8	-0.020014923
207	0x1b	0.06755037
208	0xe8	-0.06004477
209	0xc7	-0.14260633
210	0xc7	-0.14260633
211	0xe8	-0.06004477
212	0x01	0.0025018654
213	0xda	-0.09507088
214	0xe5	-0.06755037
215	0x1d	0.0725541
216	0x18	0.06004477
217	0xd8	-0.10007462
218	0x2b	0.107580215
219	0xd8	-0.10007462
220	0xea	-0.055041037
221	0xe4	-0.07005223
222	0xf8	-0.020014923
223	0xef	-0.04253171
224	0x0f	0.037527982
225	0xdb	-0.092569016
226	0x0a	0.025018655
227	0xf7	-0.022516789
228	0xea	-0.055041037
229	0xc4	-0.15011193
230	0xf9	-0.017513057
231	0xe8	-0.06004477
232	0xde	-0.08506342
233	0xde	-0.08506342
234	0xed	-0.04753544
235	0xe2	-0.075055964
236	0xfb	-0.012509327
237	0xfa	-0.015011192
238	0xdb	-0.092569016
239	0xde	-0.08506342
240	0x05	0.012509327
241	0xf1	-0.037527982
242	0x0d	0.03252425
243	0xe0	-0.08005969
244	0xe0	-0.08005969
245	0xd0	-0.12008954
246	0xf7	-0.022516789
247	0xe2	-0.075055964
248	0xf9	-0.017513057
249	0xff	-0.0025018654
250	0xe5	-0.06755037
251	0xe6	-0.0650485
252	0x14	0.05003731
253	0xfa	-0.015011192
254	0xda	-0.09507088
255	0x0a	0.025018655

model_1/conv2d_9/Conv2D i1 [64, 1, 1, 64]
0	0x6f	111
1	0x93	-109
2	0x03	3
3	0x2e	46
4	0x19	25
5	0x8f	-113
6	0xb8	-72
7	0xe9	-23
8	0x00	0
9	0xf9	-7
10	0x6c	108
11	0xcb	-53
12	0xbd	-67
13	0xf5	-11
14	0xd4	-44
15	0x30	48
16	0x3f	63
17	0x65	101
18	0x0a	10
19	0xfd	-3
20	0x9d	-99
21	0xdb	-37
22	0x10	16
23	0x6e	110
24	0x07	7
25	0x4a	74
26	0x69	105
27	0x1f	31
28	0x3a	58
29	0xde	-34
30	0xe2	-30
31	0xde	-34
32	0x63	99
33	0xab	-85
34	0x24	36
35	0xce	-50
36	0xd5	-43
37	0x61	97
38	0x82	-126
39	0x05	5
40	0xeb	-21
41	0xf1	-15
42	0xfa	-6
43	0xb5	-75
44	0x09	9
45	0x0e	14
46	0xf5	-11
47	0xf0	-16
48	0xa6	-90
49	0xdd	-35
50	0x0d	13
51	0xbb	-69
52	0x0e	14
53	0x70	112
54	0xb1	-79
55	0x01	1
56	0xc2	-62
57	0xce	-50
58	0x81	-127
59	0xdb	-37
60	0x8c	-116
61	0x99	-103
62	0x08	8
63	0xcd	-51
64	0x41	65
65	0xb1	-79
66	0xb6	-74
67	0x3e	62
68	0x5d	93
69	0x42	66
70	0x13	19
71	0xb5	-75
72	0x06	6
73	0x15	21
74	0x5b	91
75	0x81	-127
76	0xeb	-21
77	0x47	71
78	0x0e	14
79	0xa9	-87
80	0x3d	61
81	0xc4	-60
82	0xee	-18
83	0x1c	28
84	0x15	21
85	0xd6	-42
86	0x29	41
87	0x46	70
88	0xfe	-2
89	0xdf	-33
90	0x48	72
91	0x89	-119
92	0x6c	108
93	0x21	33
94	0xe9	-23
95	0x1e	30
96	0x46	70
97	0xc6	-58
98	0xf1	-15
99	0x0e	14
100	0xba	-70
101	0x8c	-116
102	0x1a	26
103	0x83	-125
104	0xf6	-10
105	0x1d	29
106	0x33	51
107	0x2e	46
108	0xad	-83
109	0xe4	-28
110	0x08	8
111	0xae	-82
112	0xa3	-93
113	0xfa	-6
114	0x05	5
115	0x04	4
116	0x56	86
117	0xce	-50
118	0xa4	-92
119	0x2c	44
120	0x3d	61
121	0xcb	-53
122	0x97	-105
123	0xfa	-6
124	0xac	-84
125	0x62	98
126	0xe3	-29
127	0x8f	-113
128	0x23	35
129	0xcf	-49
130	0xee	-18
131	0xbc	-68
132	0x86	-122
133	0x1e	30
134	0x11	17
135	0x5a	90
136	0x47	71
137	0x23	35
138	0xad	-83
139	0x18	24
140	0x81	-127
141	0x21	33
142	0x17	23
143	0x2f	47
144	0x06	6
145	0x26	38
146	0x63	99
147	0x0c	12
148	0xdf	-33
149	0xc6	-58
150	0xb3	-77
151	0x68	104
152	0xbb	-69
153	0x19	25
154	0xbc	-68
155	0xb3	-77
156	0x34	52
157	0x70	112
158	0x31	49
159	0x07	7
160	0xb9	-71
161	0xf9	-7
162	0xff	-1
163	0x18	24
164	0x10	16
165	0x57	87
166	0x42	66
167	0x25	37
168	0x35	53
169	0x4d	77
170	0xd0	-48
171	0x65	101
172	0xef	-17
173	0x25	37
174	0x0a	10
175	0xde	-34
176	0x4e	78
177	0x35	53
178	0xd1	-47
179	0x35	53
180	0xaf	-81
181	0xbc	-68
182	0xd3	-45
183	0xb5	-75
184	0xfa	-6
185	0xbe	-66
186	0xcb	-53
187	0xe7	-25
188	0xec	-20
189	0xaa	-86
190	0x9d	-99
191	0xbb	-69
192	0x2a	42
193	0xd8	-40
194	0xdb	-37
195	0x08	8
196	0xbf	-65
197	0x23	35
198	0x06	6
199	0xdf	-33
200	0x05	5
201	0xd4	-44
202	0xd5	-43
203	0xed	-19
204	0xbb	-69
205	0xfa	-6
206	0x29	41
207	0x2c	44
208	0xea	-22
209	0xad	-83
210	0x0a	10
211	0xef	-17
212	0x26	38
213	0x34	52
214	0xda	-38
215	0x81	-127
216	0x28	40
217	0x29	41
218	0x23	35
219	0xda	-38
220	0xdb	-37
221	0x4b	75
222	0xee	-18
223	0x2e	46
224	0xef	-17
225	0xf9	-7
226	0xf8	-8
227	0xfd	-3
228	0xcc	-52
229	0x03	3
230	0xde	-34
231	0xdc	-36
232	0x2e	46
233	0x3a	58
234	0xef	-17
235	0x23	35
236	0xa2	-94
237	0x16	22
238	0xcb	-53
239	0xd3	-45
240	0xd8	-40
241	0x11	17
242	0xcf	-49
243	0xc2	-62
244	0xdb	-37
245	0x08	8
246	0xb0	-80
247	0xd8	-40
248	0x06	6
249	0x2d	45
250	0x15	21
251	0xd5	-43
252	0xf1	-15
253	0x09	9
254	0xd1	-47
255	0xf4	-12

model_1/depthwise_conv2d_11/depthwise i1 [1, 23, 1, 64]
0	0xe1	-31
1	0x81	-127
2	0x0b	11
3	0x9b	-101
4	0xfc	-4
5	0x8d	-115
6	0xe3	-29
7	0x2e	46
8	0x20	32
9	0x20	32
10	0x43	67
11	0x3b	59
12	0x4d	77
13	0xfc	-4
14	0x31	49
15	0xaa	-86
16	0xfb	-5
17	0x88	-120
18	0xba	-70
19	0xef	-17
20	0xbf	-65
21	0x1d	29
22	0x13	19
23	0xd7	-41
24	0xc2	-62
25	0xc7	-57
26	0x9d	-99
27	0xba	-70
28	0x46	70
29	0x81	-127
30	0xe5	-27
31	0x13	19
32	0x4c	76
33	0x1c	28
34	0xd1	-47
35	0xbc	-68
36	0x7f	127
37	0x69	105
38	0x15	21
39	0x4e	78
40	0xf1	-15
41	0x03	3
42	0x81	-127
43	0xa7	-89
44	0x7f	127
45	0xef	-17
46	0xfc	-4
47	0x34	52
48	0x26	38
49	0xe1	-31
50	0xe0	-32
51	0xa7	-89
52	0xcd	-51
53	0xda	-38
54	0xdd	-35
55	0xfe	-2
56	0x28	40
57	0x1f	31
58	0x60	96
59	0xab	-85
60	0xf5	-11
61	0xb5	-75
62	0x3b	59
63	0x58	88
64	0xb6	-74
65	0x9a	-102
66	0x4c	76
67	0xd9	-39
68	0xdf	-33
69	0xa4	-92
70	0x02	2
71	0xb9	-71
72	0x5f	95
73	0x03	3
74	0x6a	106
75	0xf8	-8
76	0x37	55
77	0x1a	26
78	0x54	84
79	0x9f	-97
80	0xc5	-59
81	0x81	-127
82	0x00	0
83	0xd7	-41
84	0xe3	-29
85	0xd4	-44
86	0xc7	-57
87	0xe7	-25
88	0xf7	-9
89	0xce	-50
90	0x97	-105
91	0xa6	-90
92	0x7f	127
93	0x86	-122
94	0xda	-38
95	0xdd	-35
96	0x2d	45
97	0x61	97
98	0xdb	-37
99	0x1b	27
100	0x73	115
101	0x0f	15
102	0x3f	63
103	0x28	40
104	0xe9	-23
105	0x24	36
106	0x90	-112
107	0xb7	-73
108	0x5e	94
109	0xd1	-47
110	0x13	19
111	0x01	1
112	0x11	17
113	0xcb	-53
114	0xd7	-41
115	0xcc	-52
116	0xec	-20
117	0xbc	-68
118	0x2d	45
119	0xd0	-48
120	0xf8	-8
121	0x25	37
122	0x7f	127
123	0xe9	-23
124	0x0b	11
125	0xd9	-39
126	0x0b	11
127	0x3a	58
128	0xce	-50
129	0xf3	-13
130	0x0e	14
131	0x0d	13
132	0x04	4
133	0x14	20
134	0x08	8
135	0xdb	-37
136	0x34	52
137	0x02	2
138	0x3f	63
139	0x0d	13
140	0x75	117
141	0xf4	-12
142	0x6e	110
143	0x9d	-99
144	0xb2	-78
145	0xb2	-78
146	0x64	100
147	0xe7	-25
148	0xf7	-9
149	0xe7	-25
150	0xbe	-66
151	0xec	-20
152	0x38	56
153	0xfb	-5
154	0x81	-127
155	0xc8	-56
156	0x57	87
157	0x82	-126
158	0x9c	-100
159	0xd2	-46
160	0xf9	-7
161	0x22	34
162	0x22	34
163	0x9f	-97
164	0x7b	123
165	0x92	-110
166	0x06	6
167	0x02	2
168	0x00	0
169	0x3d	61
170	0xad	-83
171	0xab	-85
172	0x36	54
173	0xd1	-47
174	0xb8	-72
175	0x0f	15
176	0x09	9
177	0xf6	-10
178	0xff	-1
179	0xbf	-65
180	0xf6	-10
181	0xdd	-35
182	0x40	64
183	0x11	17
184	0x03	3
185	0x2f	47
186	0x7a	122
187	0xc3	-61
188	0x4d	77
189	0x02	2
190	0x14	20
191	0x74	116
192	0xd9	-39
193	0xeb	-21
194	0xaa	-86
195	0xc1	-63
196	0xef	-17
197	0x56	86
198	0xe4	-28
199	0xde	-34
200	0x3b	59
201	0x19	25
202	0x12	18
203	0x55	85
204	0x4e	78
205	0x06	6
206	0x45	69
207	0xa0	-96
208	0xa8	-88
209	0xce	-50
210	0x18	24
211	0xd9	-39
212	0xc8	-56
213	0x94	-108
214	0xee	-18
215	0xe4	-28
216	0x47	71
217	0x10	16
218	0xc8	-56
219	0xbb	-69
220	0x52	82
221	0x81	-127
222	0x90	-112
223	0xab	-85
224	0xf2	-14
225	0xf3	-13
226	0xfc	-4
227	0x08	8
228	0x52	82
229	0x81	-127
230	0x1d	29
231	0x1a	26
232	0x26	38
233	0x13	19
234	0xd6	-42
235	0x81	-127
236	0x37	55
237	0xcb	-53
238	0xf4	-12
239	0x0e	14
240	0xd7	-41
241	0x07	7
242	0xba	-70
243	0xfa	-6
244	0xfc	-4
245	0x13	19
246	0xf4	-12
247	0xd7	-41
248	0x81	-127
249	0xcd	-51
250	0x60	96
251	0xd4	-44
252	0x3f	63
253	0x4f	79
254	0x16	22
255	0x70	112

model_1/conv2d_8/Conv2D i1 [64, 1, 1, 64]
0	0xec	-20
1	0xb0	-80
2	0xf3	-13
3	0x00	0
4	0xf6	-10
5	0x3c	60
6	0xda	-38
7	0xec	-20
8	0x4f	79
9	0x89	-119
10	0x36	54
11	0x50	80
12	0x77	119
13	0x22	34
14	0x2a	42
15	0xe7	-25
16	0x2a	42
17	0x9c	-100
18	0x36	54
19	0x45	69
20	0xfa	-6
21	0xc2	-62
22	0xf0	-16
23	0x2c	44
24	0xdf	-33
25	0x2d	45
26	0x28	40
27	0xac	-84
28	0xaa	-86
29	0x1a	26
30	0xce	-50
31	0x1c	28
32	0x0e	14
33	0x4c	76
34	0xd1	-47
35	0xe7	-25
36	0x16	22
37	0x3f	63
38	0xb7	-73
39	0x01	1
40	0xe0	-32
41	0x0e	14
42	0xbd	-67
43	0x2d	45
44	0xcd	-51
45	0x81	-127
46	0xd0	-48
47	0x3d	61
48	0x20	32
49	0x63	99
50	0x32	50
51	0x25	37
52	0x14	20
53	0xff	-1
54	0xe1	-31
55	0x10	16
56	0x0e	14
57	0x3e	62
58	0x51	81
59	0xe6	-26
60	0xb1	-79
61	0xe1	-31
62	0xd0	-48
63	0xd7	-41
64	0x04	4
65	0x79	121
66	0x31	49
67	0xf6	-10
68	0xba	-70
69	0xa0	-96
70	0x20	32
71	0xd6	-42
72	0x2d	45
73	0x2a	42
74	0xf8	-8
75	0xc5	-59
76	0xb9	-71
77	0x63	99
78	0xdc	-36
79	0xc9	-55
80	0xfd	-3
81	0x48	72
82	0xb2	-78
83	0x26	38
84	0xeb	-21
85	0xfd	-3
86	0xb8	-72
87	0xfb	-5
88	0xd8	-40
89	0xf8	-8
90	0xa0	-96
91	0x21	33
92	0x61	97
93	0x0d	13
94	0xb9	-71
95	0x8d	-115
96	0x20	32
97	0x81	-127
98	0x89	-119
99	0xaf	-81
100	0x00	0
101	0x1c	28
102	0x20	32
103	0x39	57
104	0xfa	-6
105	0x7a	122
106	0x27	39
107	0x1a	26
108	0xb3	-77
109	0x11	17
110	0xc5	-59
111	0xce	-50
112	0x25	37
113	0x25	37
114	0xdd	-35
115	0xc2	-62
116	0x55	85
117	0x04	4
118	0x07	7
119	0x51	81
120	0xe3	-29
121	0x4e	78
122	0x60	96
123	0xd1	-47
124	0xf9	-7
125	0xf8	-8
126	0x72	114
127	0xed	-19
128	0xe9	-23
129	0x81	-127
130	0xdd	-35
131	0x52	82
132	0xba	-70
133	0x44	68
134	0x00	0
135	0x31	49
136	0xb7	-73
137	0x8a	-118
138	0x1c	28
139	0xf6	-10
140	0xff	-1
141	0x62	98
142	0x26	38
143	0x14	20
144	0x1d	29
145	0xe3	-29
146	0x4d	77
147	0x9e	-98
148	0xc5	-59
149	0x63	99
150	0xdc	-36
151	0x01	1
152	0xa0	-96
153	0xe9	-23
154	0xdf	-33
155	0xf0	-16
156	0x3f	63
157	0xff	-1
158	0xba	-70
159	0x7a	122
160	0xfc	-4
161	0x2a	42
162	0x0e	14
163	0xc7	-57
164	0x33	51
165	0x4a	74
166	0xae	-82
167	0x0a	10
168	0xe0	-32
169	0xea	-22
170	0xa7	-89
171	0x70	112
172	0xcf	-49
173	0x68	104
174	0x0a	10
175	0x22	34
176	0x57	87
177	0x25	37
178	0x2e	46
179	0xb0	-80
180	0xf9	-7
181	0x01	1
182	0xd1	-47
183	0x18	24
184	0xf0	-16
185	0xc2	-62
186	0x2e	46
187	0x0f	15
188	0x4f	79
189	0xe1	-31
190	0xde	-34
191	0xbc	-68
192	0xe2	-30
193	0xc9	-55
194	0xc4	-60
195	0x23	35
196	0x12	18
197	0x5f	95
198	0xf3	-13
199	0xe9	-23
200	0x31	49
201	0xf2	-14
202	0xf3	-13
203	0xb4	-76
204	0x45	69
205	0xd7	-41
206	0xb7	-73
207	0xdb	-37
208	0xf9	-7
209	0xae	-82
210	0x18	24
211	0x0e	14
212	0x17	23
213	0x1b	27
214	0xac	-84
215	0xd1	-47
216	0xab	-85
217	0x9a	-102
218	0xe8	-24
219	0xef	-17
220	0x38	56
221	0x54	84
222	0x20	32
223	0x1c	28
224	0x59	89
225	0xbe	-66
226	0x3c	60
227	0xb3	-77
228	0x40	64
229	0xed	-19
230	0xce	-50
231	0x81	-127
232	0xfc	-4
233	0x6c	108
234	0xbe	-66
235	0xbf	-65
236	0x04	4
237	0x0a	10
238	0xf3	-13
239	0xe5	-27
240	0x5d	93
241	0xc0	-64
242	0xf0	-16
243	0xd3	-45
244	0x10	16
245	0x18	24
246	0x16	22
247	0x1e	30
248	0x37	55
249	0x29	41
250	0x4b	75
251	0x00	0
252	0xee	-18
253	0x62	98
254	0x23	35
255	0xa5	-91

model_1/depthwise_conv2d_10/depthwise1 i1 [1, 15, 1, 32]
0	0x7a	122
1	0x2f	47
2	0x57	87
3	0xbb	-69
4	0x63	99
5	0xfe	-2
6	0xf7	-9
7	0xd2	-46
8	0x7c	124
9	0x5b	91
10	0x49	73
11	0x86	-122
12	0xc7	-57
13	0x02	2
14	0x2e	46
15	0xe6	-26
16	0xcc	-52
17	0x4c	76
18	0xfd	-3
19	0x42	66
20	0x33	51
21	0x62	98
22	0x0c	12
23	0xff	-1
24	0x81	-127
25	0xa7	-89
26	0x25	37
27	0xcf	-49
28	0x31	49
29	0x14	20
30	0x81	-127
31	0x9d	-99
32	0x59	89
33	0x7f	127
34	0x63	99
35	0x09	9
36	0xb1	-79
37	0xa1	-95
38	0x39	57
39	0xa1	-95
40	0x5a	90
41	0x7e	126
42	0x27	39
43	0x87	-121
44	0xa3	-93
45	0xd2	-46
46	0x42	66
47	0x98	-104
48	0x00	0
49	0x48	72
50	0x7f	127
51	0x52	82
52	0x53	83
53	0x17	23
54	0x7f	127
55	0xc8	-56
56	0xa4	-92
57	0x81	-127
58	0x00	0
59	0xc7	-57
60	0x1c	28
61	0x26	38
62	0x95	-107
63	0xb4	-76
64	0x2d	45
65	0x2b	43
66	0xd7	-41
67	0x1d	29
68	0xee	-18
69	0x1c	28
70	0x3f	63
71	0xd4	-44
72	0x04	4
73	0x56	86
74	0x22	34
75	0x81	-127
76	0x81	-127
77	0xfb	-5
78	0x19	25
79	0x81	-127
80	0x9f	-97
81	0x48	72
82	0xe5	-27
83	0x52	82
84	0x70	112
85	0x37	55
86	0x5f	95
87	0xf9	-7
88	0xea	-22
89	0xaa	-86
90	0x4f	79
91	0x98	-104
92	0x52	82
93	0xe0	-32
94	0xd9	-39
95	0x16	22
96	0x7f	127
97	0x1e	30
98	0xd0	-48
99	0xb7	-73
100	0x12	18
101	0xf9	-7
102	0x81	-127
103	0xc5	-59
104	0xd6	-42
105	0x4e	78
106	0x2a	42
107	0xad	-83
108	0xc9	-55
109	0xd6	-42
110	0x4d	77
111	0xa1	-95
112	0xa0	-96
113	0xe3	-29
114	0x11	17
115	0x0d	13
116	0x63	99
117	0x29	41
118	0x0c	12
119	0xf1	-15
120	0x9e	-98
121	0xa2	-94
122	0x09	9
123	0xbe	-66
124	0x7f	127
125	0xd7	-41
126	0xdd	-35
127	0xaf	-81
128	0x2f	47
129	0xd0	-48
130	0xdb	-37
131	0xbb	-69
132	0xba	-70
133	0x59	89
134	0x0a	10
135	0x6d	109
136	0xf1	-15
137	0x3c	60
138	0x02	2
139	0xd7	-41
140	0xb7	-73
141	0xc8	-56
142	0x2e	46
143	0xd2	-46
144	0x81	-127
145	0x2d	45
146	0x1b	27
147	0x47	71
148	0x69	105
149	0xf2	-14
150	0xc4	-60
151	0xf9	-7
152	0xd2	-46
153	0xa1	-95
154	0xf4	-12
155	0x0d	13
156	0x35	53
157	0xc3	-61
158	0xf4	-12
159	0xe3	-29
160	0x13	19
161	0xfc	-4
162	0xbc	-68
163	0xcf	-49
164	0xdf	-33
165	0xe1	-31
166	0x94	-108
167	0x3a	58
168	0x1f	31
169	0x7f	127
170	0xd9	-39
171	0x9e	-98
172	0xb1	-79
173	0x2c	44
174	0xfd	-3
175	0x08	8
176	0x87	-121
177	0x3d	61
178	0x21	33
179	0x2d	45
180	0x7f	127
181	0xc7	-57
182	0xf4	-12
183	0x2e	46
184	0x25	37
185	0xe3	-29
186	0xff	-1
187	0x68	104
188	0x50	80
189	0xdf	-33
190	0xf3	-13
191	0x1f	31
192	0xe2	-30
193	0xc2	-62
194	0xae	-82
195	0xe9	-23
196	0x3b	59
197	0xed	-19
198	0x9b	-101
199	0x7f	127
200	0x10	16
201	0x35	53
202	0xf9	-7
203	0xe9	-23
204	0xe8	-24
205	0xc2	-62
206	0x0d	13
207	0xde	-34
208	0xe0	-32
209	0x14	20
210	0xf6	-10
211	0xcd	-51
212	0x31	49
213	0xe5	-27
214	0x15	21
215	0x34	52
216	0x5a	90
217	0x01	1
218	0x1e	30
219	0x06	6
220	0x31	49
221	0x0e	14
222	0xf8	-8
223	0x0d	13
224	0x04	4
225	0x99	-103
226	0xdc	-36
227	0xdd	-35
228	0x7a	122
229	0x09	9
230	0x34	52
231	0x21	33
232	0xcf	-49
233	0x23	35
234	0x38	56
235	0x3f	63
236	0xc6	-58
237	0xaa	-86
238	0x06	6
239	0x01	1
240	0x0a	10
241	0xe4	-28
242	0xe1	-31
243	0x10	16
244	0x35	53
245	0x1c	28
246	0xab	-85
247	0x20	32
248	0xfe	-2
249	0xc1	-63
250	0x2b	43
251	0xff	-1
252	0x3c	60
253	0xe5	-27
254	0x12	18
255	0xfa	-6

model_1/depthwise_conv2d_9/depthwise i1 [1, 9, 1, 32]
0	0x3e	62
1	0x3f	63
2	0xfb	-5
3	0x29	41
4	0x6b	107
5	0x06	6
6	0x4c	76
7	0x3c	60
8	0x10	16
9	0xcb	-53
10	0x1b	27
11	0x31	49
12	0xff	-1
13	0x03	3
14	0xff	-1
15	0x00	0
16	0x05	5
17	0x36	54
18	0xd2	-46
19	0x01	1
20	0x07	7
21	0xf7	-9
22	0x7f	127
23	0xc7	-57
24	0x3a	58
25	0x60	96
26	0x16	22
27	0xc2	-62
28	0x4c	76
29	0x9b	-101
30	0xae	-82
31	0xb9	-71
32	0x3d	61
33	0x06	6
34	0xe7	-25
35	0xdf	-33
36	0x28	40
37	0x8d	-115
38	0x75	117
39	0xfb	-5
40	0x0f	15
41	0x3b	59
42	0x81	-127
43	0x07	7
44	0x10	16
45	0xcd	-51
46	0x8b	-117
47	0x14	20
48	0x84	-124
49	0x58	88
50	0xf9	-7
51	0xc7	-57
52	0x7f	127
53	0xad	-83
54	0x68	104
55	0x21	33
56	0x45	69
57	0x69	105
58	0xda	-38
59	0x12	18
60	0x4d	77
61	0xa6	-90
62	0xbd	-67
63	0xc8	-56
64	0x0e	14
65	0x6b	107
66	0x1c	28
67	0x30	48
68	0x68	104
69	0xc9	-55
70	0xe1	-31
71	0x18	24
72	0xf0	-16
73	0x9a	-102
74	0xc4	-60
75	0xa8	-88
76	0xd0	-48
77	0x2b	43
78	0x40	64
79	0x2c	44
80	0xd5	-43
81	0x7f	127
82	0x8b	-117
83	0x7f	127
84	0xf4	-12
85	0x0e	14
86	0x30	48
87	0xa1	-95
88	0x2b	43
89	0x51	81
90	0x52	82
91	0xe8	-24
92	0x6c	108
93	0xae	-82
94	0x5d	93
95	0xcb	-53
96	0x0e	14
97	0x69	105
98	0x09	9
99	0xf1	-15
100	0xe2	-30
101	0xdb	-37
102	0x10	16
103	0x43	67
104	0xb7	-73
105	0x81	-127
106	0x24	36
107	0xda	-38
108	0x1c	28
109	0x69	105
110	0xac	-84
111	0x1a	26
112	0x81	-127
113	0x51	81
114	0x81	-127
115	0x5f	95
116	0x2f	47
117	0x08	8
118	0xe6	-26
119	0x3b	59
120	0xf1	-15
121	0x28	40
122	0x41	65
123	0xb5	-75
124	0x0a	10
125	0xfa	-6
126	0x64	100
127	0x9e	-98
128	0x38	56
129	0x1c	28
130	0x16	22
131	0x04	4
132	0xe0	-32
133	0xd3	-45
134	0x29	41
135	0x7b	123
136	0xf2	-14
137	0xd5	-43
138	0x19	25
139	0xbd	-67
140	0x70	112
141	0x51	81
142	0xa9	-87
143	0xf6	-10
144	0xb5	-75
145	0x69	105
146	0xb7	-73
147	0xf8	-8
148	0x62	98
149	0xd1	-47
150	0x30	48
151	0x51	81
152	0xf3	-13
153	0x34	52
154	0xf2	-14
155	0xd0	-48
156	0xe0	-32
157	0xab	-85
158	0x74	116
159	0x81	-127
160	0xc3	-61
161	0x7f	127
162	0xb8	-72
163	0x05	5
164	0x81	-127
165	0x8b	-117
166	0xff	-1
167	0x7f	127
168	0x5b	91
169	0xa0	-96
170	0xae	-82
171	0x81	-127
172	0x50	80
173	0x7f	127
174	0xc6	-58
175	0x40	64
176	0xad	-83
177	0xf9	-7
178	0x8b	-117
179	0x2d	45
180	0x59	89
181	0x13	19
182	0x1d	29
183	0x55	85
184	0x08	8
185	0x38	56
186	0x50	80
187	0xc1	-63
188	0xf4	-12
189	0xcc	-52
190	0x2f	47
191	0x19	25
192	0xd2	-46
193	0x47	71
194	0xab	-85
195	0x47	71
196	0xa4	-92
197	0xe2	-30
198	0xff	-1
199	0x2d	45
200	0x7f	127
201	0x3f	63
202	0x98	-104
203	0x83	-125
204	0x13	19
205	0x7a	122
206	0x84	-124
207	0x46	70
208	0x53	83
209	0x6a	106
210	0x9c	-100
211	0x38	56
212	0x56	86
213	0x15	21
214	0x9d	-99
215	0x3c	60
216	0x40	64
217	0x41	65
218	0x37	55
219	0x75	117
220	0x23	35
221	0xe6	-26
222	0x87	-121
223	0x10	16
224	0xda	-38
225	0x5b	91
226	0xc7	-57
227	0x7f	127
228	0xa0	-96
229	0x81	-127
230	0x81	-127
231	0x34	52
232	0x1d	29
233	0x2e	46
234	0xff	-1
235	0xcf	-49
236	0x65	101
237	0x5e	94
238	0xb8	-72
239	0xc9	-55
240	0x05	5
241	0x7b	123
242	0xcd	-51
243	0x3f	63
244	0xe1	-31
245	0x5c	92
246	0xe3	-29
247	0x83	-125
248	0x7f	127
249	0x7f	127
250	0x51	81
251	0x7f	127
252	0x7f	127
253	0x8f	-113
254	0x81	-127
255	0x5c	92

model_1/conv2d_7/Conv2D i1 [64, 1, 1, 64]
0	0x3c	60
1	0x4e	78
2	0x0a	10
3	0xec	-20
4	0xa8	-88
5	0x06	6
6	0x07	7
7	0x03	3
8	0xe5	-27
9	0x58	88
10	0x2c	44
11	0x1e	30
12	0xc8	-56
13	0xf8	-8
14	0xcb	-53
15	0x01	1
16	0x22	34
17	0xf6	-10
18	0xf3	-13
19	0x57	87
20	0xfe	-2
21	0xfd	-3
22	0xc6	-58
23	0x44	68
24	0xfb	-5
25	0xbe	-66
26	0xd8	-40
27	0xe2	-30
28	0xe2	-30
29	0xe1	-31
30	0xd0	-48
31	0x00	0
32	0xd9	-39
33	0x30	48
34	0x15	21
35	0x1c	28
36	0xd9	-39
37	0x0f	15
38	0x4f	79
39	0x96	-106
40	0x8f	-113
41	0xdb	-37
42	0xfe	-2
43	0x36	54
44	0xf8	-8
45	0x62	98
46	0xa1	-95
47	0x81	-127
48	0x59	89
49	0x4e	78
50	0xa8	-88
51	0x31	49
52	0x0e	14
53	0x54	84
54	0x00	0
55	0x0c	12
56	0x52	82
57	0x19	25
58	0x18	24
59	0x4c	76
60	0xff	-1
61	0x0a	10
62	0xa3	-93
63	0x3e	62
64	0xc2	-62
65	0x57	87
66	0x03	3
67	0x1f	31
68	0xef	-17
69	0xeb	-21
70	0x17	23
71	0xce	-50
72	0xca	-54
73	0xcb	-53
74	0xfa	-6
75	0x01	1
76	0xb4	-76
77	0x02	2
78	0x15	21
79	0x0d	13
80	0x27	39
81	0x46	70
82	0x9d	-99
83	0xf0	-16
84	0xfe	-2
85	0xc2	-62
86	0x17	23
87	0x10	16
88	0xef	-17
89	0x13	19
90	0x08	8
91	0x1b	27
92	0xe5	-27
93	0x9f	-97
94	0xf7	-9
95	0x20	32
96	0xb3	-77
97	0x28	40
98	0x04	4
99	0x4c	76
100	0xf9	-7
101	0x81	-127
102	0xe3	-29
103	0x1f	31
104	0x0c	12
105	0x04	4
106	0x35	53
107	0xb4	-76
108	0x3b	59
109	0x42	66
110	0x34	52
111	0x41	65
112	0xe9	-23
113	0x43	67
114	0x18	24
115	0x3e	62
116	0x54	84
117	0xe3	-29
118	0x3c	60
119	0xf4	-12
120	0x2a	42
121	0xf5	-11
122	0xdf	-33
123	0x37	55
124	0x64	100
125	0x06	6
126	0xe8	-24
127	0xeb	-21
128	0xcc	-52
129	0xee	-18
130	0x3c	60
131	0xff	-1
132	0x35	53
133	0xa9	-87
134	0xe8	-24
135	0x2c	44
136	0xd0	-48
137	0x81	-127
138	0x1b	27
139	0x0c	12
140	0xef	-17
141	0x30	48
142	0xef	-17
143	0x7f	127
144	0xd1	-47
145	0xea	-22
146	0x0e	14
147	0x88	-120
148	0x28	40
149	0xd7	-41
150	0x04	4
151	0xe5	-27
152	0x0c	12
153	0xef	-17
154	0xcc	-52
155	0xf5	-11
156	0x07	7
157	0x17	23
158	0xb9	-71
159	0x0a	10
160	0xe1	-31
161	0x0a	10
162	0x4c	76
163	0x2b	43
164	0x08	8
165	0x39	57
166	0x22	34
167	0xb8	-72
168	0x0f	15
169	0x0a	10
170	0xd5	-43
171	0xad	-83
172	0x13	19
173	0x41	65
174	0xf6	-10
175	0x2e	46
176	0x08	8
177	0xc6	-58
178	0x14	20
179	0xfa	-6
180	0x19	25
181	0x03	3
182	0x05	5
183	0xea	-22
184	0x40	64
185	0x43	67
186	0x01	1
187	0xd4	-44
188	0xeb	-21
189	0xfe	-2
190	0xff	-1
191	0xfc	-4
192	0xb8	-72
193	0xf0	-16
194	0x0d	13
195	0xc0	-64
196	0x2c	44
197	0xc0	-64
198	0x03	3
199	0x56	86
200	0xaf	-81
201	0x75	117
202	0x35	53
203	0xbd	-67
204	0x19	25
205	0x0b	11
206	0x2c	44
207	0xe6	-26
208	0x21	33
209	0xaa	-86
210	0x75	117
211	0x6a	106
212	0x2e	46
213	0xbc	-68
214	0x0b	11
215	0x3e	62
216	0x03	3
217	0x0c	12
218	0x04	4
219	0x98	-104
220	0x1b	27
221	0x01	1
222	0x18	24
223	0x7f	127
224	0x94	-108
225	0xc7	-57
226	0x56	86
227	0xf2	-14
228	0x28	40
229	0x07	7
230	0xc4	-60
231	0x9d	-99
232	0x14	20
233	0xdb	-37
234	0x32	50
235	0xdb	-37
236	0x18	24
237	0xca	-54
238	0xa9	-87
239	0xba	-70
240	0x39	57
241	0x0d	13
242	0x18	24
243	0xb0	-80
244	0xb3	-77
245	0xe2	-30
246	0xe0	-32
247	0x34	52
248	0xef	-17
249	0xd0	-48
250	0xc0	-64
251	0x99	-103
252	0xf5	-11
253	0x1c	28
254	0x6a	106
255	0x31	49

model_1/depthwise_conv2d_8/depthwise i1 [1, 11, 1, 32]
0	0xf9	-7
1	0x7f	127
2	0x7f	127
3	0x68	104
4	0x2d	45
5	0x0e	14
6	0x17	23
7	0xcc	-52
8	0x03	3
9	0x2a	42
10	0x81	-127
11	0xef	-17
12	0xdc	-36
13	0x02	2
14	0x00	0
15	0x94	-108
16	0x72	114
17	0x46	70
18	0xaa	-86
19	0x7f	127
20	0x3f	63
21	0x21	33
22	0x3f	63
23	0x3c	60
24	0x8e	-114
25	0x44	68
26	0xf8	-8
27	0x2f	47
28	0x3e	62
29	0xb7	-73
30	0xf3	-13
31	0xea	-22
32	0x10	16
33	0xf4	-12
34	0x3f	63
35	0x6a	106
36	0xd6	-42
37	0x49	73
38	0xd7	-41
39	0x12	18
40	0x9d	-99
41	0x6d	109
42	0x1f	31
43	0x0a	10
44	0x49	73
45	0x02	2
46	0x42	66
47	0xaa	-86
48	0x66	102
49	0x65	101
50	0x99	-103
51	0x45	69
52	0x3a	58
53	0x7f	127
54	0x7f	127
55	0x64	100
56	0xd3	-45
57	0xfd	-3
58	0xbb	-69
59	0x01	1
60	0x29	41
61	0xf9	-7
62	0xe0	-32
63	0xd1	-47
64	0x6b	107
65	0x2c	44
66	0x46	70
67	0x2c	44
68	0x40	64
69	0x26	38
70	0xb6	-74
71	0x14	20
72	0xf7	-9
73	0x42	66
74	0xcc	-52
75	0xd8	-40
76	0x08	8
77	0xee	-18
78	0x17	23
79	0xea	-22
80	0x3e	62
81	0x4c	76
82	0x87	-121
83	0x09	9
84	0xb4	-76
85	0x79	121
86	0x23	35
87	0x45	69
88	0xea	-22
89	0x3b	59
90	0x0d	13
91	0xfd	-3
92	0xd0	-48
93	0xcf	-49
94	0x06	6
95	0xcb	-53
96	0x1c	28
97	0xd7	-41
98	0x1f	31
99	0xd6	-42
100	0x41	65
101	0x0b	11
102	0xde	-34
103	0xdd	-35
104	0x96	-106
105	0xeb	-21
106	0x8a	-118
107	0x19	25
108	0xcc	-52
109	0x18	24
110	0xf2	-14
111	0x98	-104
112	0xd3	-45
113	0xa5	-91
114	0x4c	76
115	0x41	65
116	0xa2	-94
117	0x60	96
118	0x14	20
119	0x10	16
120	0xa3	-93
121	0x22	34
122	0xf6	-10
123	0x0b	11
124	0x81	-127
125	0x23	35
126	0x3f	63
127	0x81	-127
128	0x02	2
129	0xc5	-59
130	0xfb	-5
131	0x81	-127
132	0x1e	30
133	0x7f	127
134	0xeb	-21
135	0xbf	-65
136	0x81	-127
137	0x00	0
138	0xb4	-76
139	0xb9	-71
140	0x81	-127
141	0x01	1
142	0x4d	77
143	0xd8	-40
144	0x49	73
145	0xd8	-40
146	0x24	36
147	0x2d	45
148	0xb1	-79
149	0xd7	-41
150	0xf4	-12
151	0x0a	10
152	0xd6	-42
153	0x5a	90
154	0x2d	45
155	0x3e	62
156	0xa4	-92
157	0x0c	12
158	0x1a	26
159	0x93	-109
160	0x9b	-101
161	0xb4	-76
162	0xd0	-48
163	0xb5	-75
164	0xaf	-81
165	0x14	20
166	0x4f	79
167	0xc4	-60
168	0x32	50
169	0x9b	-101
170	0xba	-70
171	0x81	-127
172	0xdf	-33
173	0x2b	43
174	0x37	55
175	0x81	-127
176	0x81	-127
177	0x81	-127
178	0x39	57
179	0x4c	76
180	0xe6	-26
181	0x1e	30
182	0xb1	-79
183	0xfc	-4
184	0x2b	43
185	0x47	71
186	0xe7	-25
187	0x7f	127
188	0xcb	-53
189	0x7f	127
190	0x4c	76
191	0xf9	-7
192	0x5a	90
193	0xfd	-3
194	0xca	-54
195	0xe1	-31
196	0x95	-107
197	0x1f	31
198	0x0d	13
199	0xc1	-63
200	0x22	34
201	0x1b	27
202	0x19	25
203	0xc9	-55
204	0x5e	94
205	0x24	36
206	0xab	-85
207	0xac	-84
208	0x64	100
209	0xbf	-65
210	0xf2	-14
211	0x69	105
212	0x50	80
213	0x45	69
214	0x9a	-102
215	0x43	67
216	0x62	98
217	0x65	101
218	0xd5	-43
219	0xf9	-7
220	0x3e	62
221	0x50	80
222	0x4d	77
223	0x1a	26
224	0xb8	-72
225	0x2d	45
226	0xd6	-42
227	0x1f	31
228	0xd8	-40
229	0x94	-108
230	0x8b	-117
231	0x4d	77
232	0xf9	-7
233	0x5b	91
234	0x93	-109
235	0x86	-122
236	0x54	84
237	0x7f	127
238	0x31	49
239	0xbf	-65
240	0x46	70
241	0x03	3
242	0x7f	127
243	0x13	19
244	0x81	-127
245	0x72	114
246	0xef	-17
247	0xa5	-91
248	0x48	72
249	0x3d	61
250	0xa8	-88
251	0xa8	-88
252	0xe2	-30
253	0x1b	27
254	0x68	104
255	0x0f	15

model_1/depthwise_conv2d_7/depthwise i1 [1, 7, 1, 32]
0	0xf2	-14
1	0x40	64
2	0x45	69
3	0xf3	-13
4	0x1a	26
5	0x1b	27
6	0x47	71
7	0x7f	127
8	0x08	8
9	0xe4	-28
10	0x5a	90
11	0x27	39
12	0x81	-127
13	0xe6	-26
14	0x20	32
15	0x1f	31
16	0x7f	127
17	0xa2	-94
18	0x88	-120
19	0xdc	-36
20	0x75	117
21	0x2b	43
22	0x81	-127
23	0x81	-127
24	0x1e	30
25	0xb3	-77
26	0x43	67
27	0x43	67
28	0x43	67
29	0x28	40
30	0x81	-127
31	0xc2	-62
32	0x7f	127
33	0x0d	13
34	0x7f	127
35	0x14	20
36	0x30	48
37	0x16	22
38	0x0a	10
39	0x6b	107
40	0x7f	127
41	0xf3	-13
42	0x35	53
43	0x09	9
44	0x02	2
45	0xdb	-37
46	0xe3	-29
47	0x3e	62
48	0xe2	-30
49	0x0e	14
50	0xc1	-63
51	0x1e	30
52	0xf1	-15
53	0x42	66
54	0xd8	-40
55	0xef	-17
56	0x0e	14
57	0x06	6
58	0xc8	-56
59	0xf0	-16
60	0x34	52
61	0xf2	-14
62	0xca	-54
63	0x81	-127
64	0xef	-17
65	0x49	73
66	0xdc	-36
67	0x81	-127
68	0xc8	-56
69	0x7f	127
70	0x89	-119
71	0x3f	63
72	0x56	86
73	0x12	18
74	0xb6	-74
75	0x81	-127
76	0x14	20
77	0xd7	-41
78	0x7f	127
79	0x23	35
80	0xf7	-9
81	0x7f	127
82	0xbd	-67
83	0x01	1
84	0x81	-127
85	0x3d	61
86	0xb7	-73
87	0xfa	-6
88	0x63	99
89	0x5e	94
90	0x7f	127
91	0x3a	58
92	0xfe	-2
93	0x55	85
94	0x9d	-99
95	0xf5	-11
96	0x00	0
97	0x38	56
98	0x10	16
99	0x1b	27
100	0x81	-127
101	0x6f	111
102	0x81	-127
103	0x48	72
104	0x3a	58
105	0xfb	-5
106	0xbd	-67
107	0xb6	-74
108	0x56	86
109	0xcd	-51
110	0x15	21
111	0x7f	127
112	0xc2	-62
113	0x61	97
114	0x7f	127
115	0x03	3
116	0xaf	-81
117	0x56	86
118	0x02	2
119	0x15	21
120	0x9f	-97
121	0x7f	127
122	0x24	36
123	0x01	1
124	0xc1	-63
125	0x20	32
126	0xf6	-10
127	0x18	24
128	0x10	16
129	0x1e	30
130	0x7b	123
131	0xea	-22
132	0xaf	-81
133	0xd2	-46
134	0x4e	78
135	0x19	25
136	0xe3	-29
137	0x59	89
138	0x1d	29
139	0xa1	-95
140	0x90	-112
141	0xf9	-7
142	0xb3	-77
143	0x2b	43
144	0x35	53
145	0xfd	-3
146	0x1d	29
147	0x4c	76
148	0xa7	-89
149	0x6b	107
150	0xc9	-55
151	0x3a	58
152	0x81	-127
153	0xc6	-58
154	0x21	33
155	0x2b	43
156	0xfb	-5
157	0x20	32
158	0x53	83
159	0x28	40
160	0x0a	10
161	0x5c	92
162	0xec	-20
163	0x0b	11
164	0xe9	-23
165	0x6e	110
166	0x23	35
167	0x0e	14
168	0xa0	-96
169	0x7f	127
170	0xd7	-41
171	0x4b	75
172	0xa2	-94
173	0x7f	127
174	0x15	21
175	0x34	52
176	0x07	7
177	0x4d	77
178	0x60	96
179	0x61	97
180	0xed	-19
181	0x7f	127
182	0x2a	42
183	0x42	66
184	0xe4	-28
185	0xa2	-94
186	0x56	86
187	0x97	-105
188	0x7f	127
189	0x81	-127
190	0x66	102
191	0xc6	-58
192	0x7d	125
193	0x7f	127
194	0x3d	61
195	0xff	-1
196	0xcf	-49
197	0x2f	47
198	0x17	23
199	0xb5	-75
200	0xaf	-81
201	0x7e	126
202	0x81	-127
203	0x64	100
204	0xd7	-41
205	0x2b	43
206	0xe6	-26
207	0x5a	90
208	0xb4	-76
209	0xed	-19
210	0x41	65
211	0x7f	127
212	0xe1	-31
213	0xf0	-16
214	0x52	82
215	0x47	71
216	0x48	72
217	0xaf	-81
218	0x2c	44
219	0x7f	127
220	0xfe	-2
221	0xc4	-60
222	0x16	22
223	0x35	53

model_1/conv2d_6/Conv2D i1 [64, 1, 1, 32]
0	0x01	1
1	0xaf	-81
2	0x19	25
3	0xfb	-5
4	0x4d	77
5	0x3e	62
6	0x2f	47
7	0x7f	127
8	0xa4	-92
9	0x10	16
10	0xf9	-7
11	0x2d	45
12	0x9c	-100
13	0x20	32
14	0x1b	27
15	0xff	-1
16	0x4b	75
17	0x0e	14
18	0x2b	43
19	0x1f	31
20	0x0f	15
21	0x1e	30
22	0xe5	-27
23	0xd5	-43
24	0xe3	-29
25	0x08	8
26	0x94	-108
27	0xa0	-96
28	0xfc	-4
29	0x0a	10
30	0xdb	-37
31	0x26	38
32	0xf1	-15
33	0x98	-104
34	0xe0	-32
35	0xbf	-65
36	0x17	23
37	0x1c	28
38	0xea	-22
39	0x0e	14
40	0xd6	-42
41	0xed	-19
42	0xeb	-21
43	0x51	81
44	0xe5	-27
45	0xee	-18
46	0x36	54
47	0xfe	-2
48	0x00	0
49	0xed	-19
50	0xc8	-56
51	0x27	39
52	0x9e	-98
53	0x23	35
54	0x5c	92
55	0x9e	-98
56	0xbd	-67
57	0x4a	74
58	0x81	-127
59	0xcf	-49
60	0xe6	-26
61	0xa3	-93
62	0x04	4
63	0x16	22
64	0xd6	-42
65	0x36	54
66	0x1c	28
67	0x27	39
68	0x29	41
69	0xd9	-39
70	0xf3	-13
71	0x35	53
72	0xf6	-10
73	0xda	-38
74	0xc1	-63
75	0x01	1
76	0xf0	-16
77	0x1b	27
78	0x94	-108
79	0x1b	27
80	0x14	20
81	0x27	39
82	0xc2	-62
83	0xf0	-16
84	0xf2	-14
85	0x3e	62
86	0xca	-54
87	0x7f	127
88	0xee	-18
89	0x06	6
90	0x34	52
91	0x1f	31
92	0x2a	42
93	0x10	16
94	0x47	71
95	0xe9	-23
96	0xd9	-39
97	0x69	105
98	0x08	8
99	0x2d	45
100	0x45	69
101	0xda	-38
102	0xf1	-15
103	0xbd	-67
104	0x81	-127
105	0x18	24
106	0x28	40
107	0x54	84
108	0xa4	-92
109	0x24	36
110	0xdf	-33
111	0x00	0
112	0x19	25
113	0x3d	61
114	0x36	54
115	0xe6	-26
116	0x39	57
117	0x3a	58
118	0xf8	-8
119	0xc2	-62
120	0x10	16
121	0x62	98
122	0x5a	90
123	0xc9	-55
124	0xd7	-41
125	0x25	37
126	0x56	86
127	0xfb	-5
128	0x3d	61
129	0x0c	12
130	0x43	67
131	0xe0	-32
132	0xd4	-44
133	0x14	20
134	0x08	8
135	0x0e	14
136	0xc2	-62
137	0x20	32
138	0xd5	-43
139	0x1b	27
140	0xf5	-11
141	0x02	2
142	0x24	36
143	0x1a	26
144	0xb9	-71
145	0x07	7
146	0xd6	-42
147	0x1c	28
148	0x3b	59
149	0x3a	58
150	0x2d	45
151	0x1a	26
152	0x3c	60
153	0xd4	-44
154	0x7f	127
155	0xe0	-32
156	0xa7	-89
157	0xe5	-27
158	0x3c	60
159	0x32	50
160	0xbe	-66
161	0x1b	27
162	0x09	9
163	0x2d	45
164	0xde	-34
165	0x1d	29
166	0xf7	-9
167	0xaa	-86
168	0xfd	-3
169	0x03	3
170	0x09	9
171	0xf3	-13
172	0xf4	-12
173	0x03	3
174	0xe6	-26
175	0xdb	-37
176	0xf7	-9
177	0xbc	-68
178	0x27	39
179	0x07	7
180	0xd5	-43
181	0xf8	-8
182	0x0c	12
183	0xdc	-36
184	0xff	-1
185	0x08	8
186	0x4f	79
187	0x7f	127
188	0xd7	-41
189	0xc5	-59
190	0xce	-50
191	0x46	70
192	0xcf	-49
193	0x5a	90
194	0xde	-34
195	0xd3	-45
196	0xac	-84
197	0x2c	44
198	0xfd	-3
199	0x1a	26
200	0x01	1
201	0xa4	-92
202	0xd3	-45
203	0xb8	-72
204	0xce	-50
205	0x2c	44
206	0xcc	-52
207	0x81	-127
208	0x01	1
209	0x52	82
210	0xf9	-7
211	0x2f	47
212	0x28	40
213	0xfd	-3
214	0x40	64
215	0xbe	-66
216	0x31	49
217	0xe9	-23
218	0xd2	-46
219	0x3d	61
220	0x2f	47
221	0xda	-38
222	0xf4	-12
223	0xaa	-86
224	0xca	-54
225	0xdd	-35
226	0xc2	-62
227	0xa2	-94
228	0x00	0
229	0x15	21
230	0x35	53
231	0xd0	-48
232	0xf6	-10
233	0xb0	-80
234	0x05	5
235	0xf6	-10
236	0xdc	-36
237	0x4e	78
238	0x18	24
239	0xfb	-5
240	0x7f	127
241	0x79	121
242	0xf4	-12
243	0x30	48
244	0x3b	59
245	0x55	85
246	0xc3	-61
247	0x2f	47
248	0x35	53
249	0x08	8
250	0xfd	-3
251	0x94	-108
252	0x30	48
253	0xd8	-40
254	0x19	25
255	0x39	57

model_1/depthwise_conv2d_6/depthwise i1 [1, 5, 1, 32]
0	0x58	88
1	0xae	-82
2	0x68	104
3	0x81	-127
4	0xbe	-66
5	0xa8	-88
6	0x07	7
7	0xe7	-25
8	0x4c	76
9	0x7f	127
10	0x81	-127
11	0xa8	-88
12	0x84	-124
13	0x06	6
14	0x8b	-117
15	0x7f	127
16	0x90	-112
17	0xc8	-56
18	0x7f	127
19	0xc8	-56
20	0x1b	27
21	0x5c	92
22	0xcf	-49
23	0x32	50
24	0xca	-54
25	0x09	9
26	0x07	7
27	0x9e	-98
28	0xdc	-36
29	0xa7	-89
30	0x69	105
31	0xb0	-80
32	0xca	-54
33	0x4b	75
34	0x7f	127
35	0xde	-34
36	0xab	-85
37	0xc7	-57
38	0x08	8
39	0x7f	127
40	0x14	20
41	0x41	65
42	0x63	99
43	0x81	-127
44	0x13	19
45	0x25	37
46	0x77	119
47	0x95	-107
48	0x81	-127
49	0x81	-127
50	0xdf	-33
51	0x1e	30
52	0xe6	-26
53	0xd0	-48
54	0xf0	-16
55	0xe4	-28
56	0xb2	-78
57	0x9f	-97
58	0x89	-119
59	0x7f	127
60	0x7f	127
61	0x7f	127
62	0xb9	-71
63	0xe3	-29
64	0x7f	127
65	0x7f	127
66	0xd8	-40
67	0xea	-22
68	0x16	22
69	0x22	34
70	0x04	4
71	0xe5	-27
72	0x26	38
73	0x09	9
74	0x36	54
75	0x48	72
76	0xc9	-55
77	0x3b	59
78	0x5d	93
79	0x86	-122
80	0xe3	-29
81	0xfc	-4
82	0x07	7
83	0x5b	91
84	0xb1	-79
85	0x04	4
86	0x7f	127
87	0x3b	59
88	0x2e	46
89	0x7f	127
90	0x7f	127
91	0xc0	-64
92	0x19	25
93	0x68	104
94	0xb9	-71
95	0x81	-127
96	0x5c	92
97	0x8f	-113
98	0x08	8
99	0x9f	-97
100	0x7f	127
101	0x1a	26
102	0x81	-127
103	0x53	83
104	0x93	-109
105	0xf9	-7
106	0x1f	31
107	0x19	25
108	0x81	-127
109	0xb6	-74
110	0x81	-127
111	0xf8	-8
112	0xaf	-81
113	0xc6	-58
114	0x1a	26
115	0x3c	60
116	0x7f	127
117	0x81	-127
118	0x53	83
119	0x10	16
120	0x7f	127
121	0xde	-34
122	0x59	89
123	0xf4	-12
124	0x5a	90
125	0xa1	-95
126	0x14	20
127	0xb9	-71
128	0x21	33
129	0xec	-20
130	0xbe	-66
131	0x07	7
132	0x2d	45
133	0x7f	127
134	0xf3	-13
135	0xde	-34
136	0x81	-127
137	0x54	84
138	0x84	-124
139	0x07	7
140	0x6b	107
141	0x81	-127
142	0x79	121
143	0x70	112
144	0xe3	-29
145	0x9f	-97
146	0x95	-107
147	0x81	-127
148	0x60	96
149	0x9a	-102
150	0x4a	74
151	0x81	-127
152	0x32	50
153	0xd4	-44
154	0x92	-110
155	0x29	41
156	0x3b	59
157	0x2f	47
158	0x81	-127
159	0x8d	-115

model_1/stream_6/conv2d_5/Conv2D i1 [32, 5, 1, 40]
0	0xf1	-15
1	0x4f	79
2	0xed	-19
3	0x2d	45
4	0xf4	-12
5	0xfe	-2
6	0x0a	10
7	0x08	8
8	0xf7	-9
9	0x0c	12
10	0xea	-22
11	0xd3	-45
12	0xd4	-44
13	0xf6	-10
14	0xe2	-30
15	0xf7	-9
16	0xd3	-45
17	0x17	23
18	0xf2	-14
19	0x39	57
20	0x31	49
21	0x3a	58
22	0x18	24
23	0x3e	62
24	0xfa	-6
25	0x37	55
26	0x16	22
27	0x3d	61
28	0x36	54
29	0x2d	45
30	0xe9	-23
31	0xef	-17
32	0x24	36
33	0xec	-20
34	0xed	-19
35	0xfe	-2
36	0x0b	11
37	0x3a	58
38	0xe1	-31
39	0x1c	28
40	0xf7	-9
41	0x41	65
42	0xfd	-3
43	0x32	50
44	0x10	16
45	0x2d	45
46	0xf2	-14
47	0xc5	-59
48	0xae	-82
49	0xd2	-46
50	0xbb	-69
51	0xba	-70
52	0xd3	-45
53	0xfc	-4
54	0xb8	-72
55	0xd4	-44
56	0xe4	-28
57	0x1c	28
58	0x0f	15
59	0x2c	44
60	0x24	36
61	0x10	16
62	0x0f	15
63	0x14	20
64	0x2f	47
65	0xff	-1
66	0x3a	58
67	0x0d	13
68	0x1a	26
69	0xf9	-7
70	0x11	17
71	0xf4	-12
72	0x14	20
73	0xff	-1
74	0xe3	-29
75	0x04	4
76	0xd9	-39
77	0x32	50
78	0x1f	31
79	0x30	48
80	0xf5	-11
81	0x14	20
82	0x01	1
83	0x49	73
84	0xf3	-13
85	0x32	50
86	0xdc	-36
87	0xc5	-59
88	0xc7	-57
89	0xe2	-30
90	0x0a	10
91	0x0c	12
92	0xfd	-3
93	0xff	-1
94	0xb0	-80
95	0xea	-22
96	0xeb	-21
97	0xe2	-30
98	0xe6	-26
99	0x13	19
100	0x18	24
101	0x1f	31
102	0xfb	-5
103	0x23	35
104	0x00	0
105	0x2a	42
106	0x25	37
107	0x31	49
108	0x19	25
109	0x12	18
110	0xff	-1
111	0x17	23
112	0xef	-17
113	0x2d	45
114	0xdf	-33
115	0x11	17
116	0xf7	-9
117	0x10	16
118	0x1c	28
119	0x24	36
120	0xce	-50
121	0x2d	45
122	0x17	23
123	0x39	57
124	0x15	21
125	0x14	20
126	0xd8	-40
127	0xb2	-78
128	0xad	-83
129	0x08	8
130	0xc9	-55
131	0xe5	-27
132	0xc5	-59
133	0xf4	-12
134	0xe5	-27
135	0xeb	-21
136	0xad	-83
137	0xce	-50
138	0xd3	-45
139	0xe7	-25
140	0x19	25
141	0xed	-19
142	0x1e	30
143	0x2e	46
144	0x0c	12
145	0x18	24
146	0x35	53
147	0x2a	42
148	0xed	-19
149	0x2b	43
150	0xcf	-49
151	0x0b	11
152	0xed	-19
153	0x17	23
154	0xe2	-30
155	0x27	39
156	0x07	7
157	0x2d	45
158	0xfb	-5
159	0x01	1
160	0xd4	-44
161	0x00	0
162	0x1b	27
163	0x1b	27
164	0xe7	-25
165	0xe5	-27
166	0x04	4
167	0xbd	-67
168	0x81	-127
169	0xc5	-59
170	0xbe	-66
171	0xfd	-3
172	0xd9	-39
173	0x11	17
174	0xd4	-44
175	0x28	40
176	0xc2	-62
177	0xca	-54
178	0xfc	-4
179	0xf7	-9
180	0x04	4
181	0xeb	-21
182	0xfd	-3
183	0x26	38
184	0xe6	-26
185	0xe3	-29
186	0xfa	-6
187	0x27	39
188	0x0d	13
189	0xf6	-10
190	0xea	-22
191	0xf9	-7
192	0xee	-18
193	0xe2	-30
194	0xe9	-23
195	0x12	18
196	0xd0	-48
197	0x2a	42
198	0x1d	29
199	0x38	56
200	0xee	-18
201	0xf3	-13
202	0x23	35
203	0xe3	-29
204	0x00	0
205	0xf0	-16
206	0xf4	-12
207	0x27	39
208	0x14	20
209	0x29	41
210	0x20	32
211	0xe6	-26
212	0x03	3
213	0xee	-18
214	0xf6	-10
215	0x0c	12
216	0x49	73
217	0xf6	-10
218	0x1d	29
219	0xcb	-53
220	0x3d	61
221	0xf1	-15
222	0x27	39
223	0x2e	46
224	0x7f	127
225	0x68	104
226	0x19	25
227	0xfb	-5
228	0xff	-1
229	0xed	-19
230	0x3f	63
231	0x15	21
232	0x3d	61
233	0x52	82
234	0x46	70
235	0x01	1
236	0x0f	15
237	0x1c	28
238	0x11	17
239	0x31	49
240	0xd5	-43
241	0xde	-34
242	0xfe	-2
243	0xd1	-47
244	0xf7	-9
245	0xf1	-15
246	0xce	-50
247	0x0e	14
248	0xf6	-10
249	0xff	-1
250	0x09	9
251	0xf2	-14
252	0x18	24
253	0xe4	-28
254	0xcc	-52
255	0xf8	-8

tfl.pseudo_qconst i1 [1, 14, 1, 64] scale=0.036691062 zero_point=-128
0	0x80	0.0
1	0x80	0.0
2	0x80	0.0
3	0x80	0.0
4	0x80	0.0
5	0x80	0.0
6	0x80	0.0
7	0x80	0.0
8	0x80	0.0
9	0x80	0.0
10	0x80	0.0
11	0x80	0.0
12	0x80	0.0
13	0x80	0.0
14	0x80	0.0
15	0x80	0.0
16	0x80	0.0
17	0x80	0.0
18	0x80	0.0
19	0x80	0.0
20	0x80	0.0
21	0x80	0.0
22	0x80	0.0
23	0x80	0.0
24	0x80	0.0
25	0x80	0.0
26	0x80	0.0
27	0x80	0.0
28	0x80	0.0
29	0x80	0.0
30	0x80	0.0
31	0x80	0.0
32	0x80	0.0
33	0x80	0.0
34	0x80	0.0
35	0x80	0.0
36	0x80	0.0
37	0x80	0.0
38	0x80	0.0
39	0x80	0.0
40	0x80	0.0
41	0x80	0.0
42	0x80	0.0
43	0x80	0.0
44	0x80	0.0
45	0x80	0.0
46	0x80	0.0
47	0x80	0.0
48	0x80	0.0
49	0x80	0.0
50	0x80	0.0
51	0x80	0.0
52	0x80	0.0
53	0x80	0.0
54	0x80	0.0
55	0x80	0.0
56	0x80	0.0
57	0x80	0.0
58	0x80	0.0
59	0x80	0.0
60	0x80	0.0
61	0x80	0.0
62	0x80	0.0
63	0x80	0.0
64	0x80	0.0
65	0x80	0.0
66	0x80	0.0
67	0x80	0.0
68	0x80	0.0
69	0x80	0.0
70	0x80	0.0
71	0x80	0.0
72	0x80	0.0
73	0x80	0.0
74	0x80	0.0
75	0x80	0.0
76	0x80	0.0
77	0x80	0.0
78	0x80	0.0
79	0x80	0.0
80	0x80	0.0
81	0x80	0.0
82	0x80	0.0
83	0x80	0.0
84	0x80	0.0
85	0x80	0.0
86	0x80	0.0
87	0x80	0.0
88	0x80	0.0
89	0x80	0.0
90	0x80	0.0
91	0x80	0.0
92	0x80	0.0
93	0x80	0.0
94	0x80	0.0
95	0x80	0.0
96	0x80	0.0
97	0x80	0.0
98	0x80	0.0
99	0x80	0.0
100	0x80	0.0
101	0x80	0.0
102	0x80	0.0
103	0x80	0.0
104	0x80	0.0
105	0x80	0.0
106	0x80	0.0
107	0x80	0.0
108	0x80	0.0
109	0x80	0.0
110	0x80	0.0
111	0x80	0.0
112	0x80	0.0
113	0x80	0.0
114	0x80	0.0
115	0x80	0.0
116	0x80	0.0
117	0x80	0.0
118	0x80	0.0
119	0x80	0.0
120	0x80	0.0
121	0x80	0.0
122	0x80	0.0
123	0x80	0.0
124	0x80	0.0
125	0x80	0.0
126	0x80	0.0
127	0x80	0.0
128	0x80	0.0
129	0x80	0.0
130	0x80	0.0
131	0x80	0.0
132	0x80	0.0
133	0x80	0.0
134	0x80	0.0
135	0x80	0.0
136	0x80	0.0
137	0x80	0.0
138	0x80	0.0
139	0x80	0.0
140	0x80	0.0
141	0x80	0.0
142	0x80	0.0
143	0x80	0.0
144	0x80	0.0
145	0x80	0.0
146	0x80	0.0
147	0x80	0.0
148	0x80	0.0
149	0x80	0.0
150	0x80	0.0
151	0x80	0.0
152	0x80	0.0
153	0x80	0.0
154	0x80	0.0
155	0x80	0.0
156	0x80	0.0
157	0x80	0.0
158	0x80	0.0
159	0x80	0.0
160	0x80	0.0
161	0x80	0.0
162	0x80	0.0
163	0x80	0.0
164	0x80	0.0
165	0x80	0.0
166	0x80	0.0
167	0x80	0.0
168	0x80	0.0
169	0x80	0.0
170	0x80	0.0
171	0x80	0.0
172	0x80	0.0
173	0x80	0.0
174	0x80	0.0
175	0x80	0.0
176	0x80	0.0
177	0x80	0.0
178	0x80	0.0
179	0x80	0.0
180	0x80	0.0
181	0x80	0.0
182	0x80	0.0
183	0x80	0.0
184	0x80	0.0
185	0x80	0.0
186	0x80	0.0
187	0x80	0.0
188	0x80	0.0
189	0x80	0.0
190	0x80	0.0
191	0x80	0.0
192	0x80	0.0
193	0x80	0.0
194	0x80	0.0
195	0x80	0.0
196	0x80	0.0
197	0x80	0.0
198	0x80	0.0
199	0x80	0.0
200	0x80	0.0
201	0x80	0.0
202	0x80	0.0
203	0x80	0.0
204	0x80	0.0
205	0x80	0.0
206	0x80	0.0
207	0x80	0.0
208	0x80	0.0
209	0x80	0.0
210	0x80	0.0
211	0x80	0.0
212	0x80	0.0
213	0x80	0.0
214	0x80	0.0
215	0x80	0.0
216	0x80	0.0
217	0x80	0.0
218	0x80	0.0
219	0x80	0.0
220	0x80	0.0
221	0x80	0.0
222	0x80	0.0
223	0x80	0.0
224	0x80	0.0
225	0x80	0.0
226	0x80	0.0
227	0x80	0.0
228	0x80	0.0
229	0x80	0.0
230	0x80	0.0
231	0x80	0.0
232	0x80	0.0
233	0x80	0.0
234	0x80	0.0
235	0x80	0.0
236	0x80	0.0
237	0x80	0.0
238	0x80	0.0
239	0x80	0.0
240	0x80	0.0
241	0x80	0.0
242	0x80	0.0
243	0x80	0.0
244	0x80	0.0
245	0x80	0.0
246	0x80	0.0
247	0x80	0.0
248	0x80	0.0
249	0x80	0.0
250	0x80	0.0
251	0x80	0.0
252	0x80	0.0
253	0x80	0.0
254	0x80	0.0
255	0x80	0.0

tfl.pseudo_qconst1 i1 [1, 10, 1, 64] scale=0.04163561 zero_point=-128
0	0x80	0.0
1	0x80	0.0
2	0x80	0.0
3	0x80	0.0
4	0x80	0.0
5	0x80	0.0
6	0x80	0.0
7	0x80	0.0
8	0x80	0.0
9	0x80	0.0
10	0x80	0.0
11	0x80	0.0
12	0x80	0.0
13	0x80	0.0
14	0x80	0.0
15	0x80	0.0
16	0x80	0.0
17	0x80	0.0
18	0x80	0.0
19	0x80	0.0
20	0x80	0.0
21	0x80	0.0
22	0x80	0.0
23	0x80	0.0
24	0x80	0.0
25	0x80	0.0
26	0x80	0.0
27	0x80	0.0
28	0x80	0.0
29	0x80	0.0
30	0x80	0.0
31	0x80	0.0
32	0x80	0.0
33	0x80	0.0
34	0x80	0.0
35	0x80	0.0
36	0x80	0.0
37	0x80	0.0
38	0x80	0.0
39	0x80	0.0
40	0x80	0.0
41	0x80	0.0
42	0x80	0.0
43	0x80	0.0
44	0x80	0.0
45	0x80	0.0
46	0x80	0.0
47	0x80	0.0
48	0x80	0.0
49	0x80	0.0
50	0x80	0.0
51	0x80	0.0
52	0x80	0.0
53	0x80	0.0
54	0x80	0.0
55	0x80	0.0
56	0x80	0.0
57	0x80	0.0
58	0x80	0.0
59	0x80	0.0
60	0x80	0.0
61	0x80	0.0
62	0x80	0.0
63	0x80	0.0
64	0x80	0.0
65	0x80	0.0
66	0x80	0.0
67	0x80	0.0
68	0x80	0.0
69	0x80	0.0
70	0x80	0.0
71	0x80	0.0
72	0x80	0.0
73	0x80	0.0
74	0x80	0.0
75	0x80	0.0
76	0x80	0.0
77	0x80	0.0
78	0x80	0.0
79	0x80	0.0
80	0x80	0.0
81	0x80	0.0
82	0x80	0.0
83	0x80	0.0
84	0x80	0.0
85	0x80	0.0
86	0x80	0.0
87	0x80	0.0
88	0x80	0.0
89	0x80	0.0
90	0x80	0.0
91	0x80	0.0
92	0x80	0.0
93	0x80	0.0
94	0x80	0.0
95	0x80	0.0
96	0x80	0.0
97	0x80	0.0
98	0x80	0.0
99	0x80	0.0
100	0x80	0.0
101	0x80	0.0
102	0x80	0.0
103	0x80	0.0
104	0x80	0.0
105	0x80	0.0
106	0x80	0.0
107	0x80	0.0
108	0x80	0.0
109	0x80	0.0
110	0x80	0.0
111	0x80	0.0
112	0x80	0.0
113	0x80	0.0
114	0x80	0.0
115	0x80	0.0
116	0x80	0.0
117	0x80	0.0
118	0x80	0.0
119	0x80	0.0
120	0x80	0.0
121	0x80	0.0
122	0x80	0.0
123	0x80	0.0
124	0x80	0.0
125	0x80	0.0
126	0x80	0.0
127	0x80	0.0
128	0x80	0.0
129	0x80	0.0
130	0x80	0.0
131	0x80	0.0
132	0x80	0.0
133	0x80	0.0
134	0x80	0.0
135	0x80	0.0
136	0x80	0.0
137	0x80	0.0
138	0x80	0.0
139	0x80	0.0
140	0x80	0.0
141	0x80	0.0
142	0x80	0.0
143	0x80	0.0
144	0x80	0.0
145	0x80	0.0
146	0x80	0.0
147	0x80	0.0
148	0x80	0.0
149	0x80	0.0
150	0x80	0.0
151	0x80	0.0
152	0x80	0.0
153	0x80	0.0
154	0x80	0.0
155	0x80	0.0
156	0x80	0.0
157	0x80	0.0
158	0x80	0.0
159	0x80	0.0
160	0x80	0.0
161	0x80	0.0
162	0x80	0.0
163	0x80	0.0
164	0x80	0.0
165	0x80	0.0
166	0x80	0.0
167	0x80	0.0
168	0x80	0.0
169	0x80	0.0
170	0x80	0.0
171	0x80	0.0
172	0x80	0.0
173	0x80	0.0
174	0x80	0.0
175	0x80	0.0
176	0x80	0.0
177	0x80	0.0
178	0x80	0.0
179	0x80	0.0
180	0x80	0.0
181	0x80	0.0
182	0x80	0.0
183	0x80	0.0
184	0x80	0.0
185	0x80	0.0
186	0x80	0.0
187	0x80	0.0
188	0x80	0.0
189	0x80	0.0
190	0x80	0.0
191	0x80	0.0
192	0x80	0.0
193	0x80	0.0
194	0x80	0.0
195	0x80	0.0
196	0x80	0.0
197	0x80	0.0
198	0x80	0.0
199	0x80	0.0
200	0x80	0.0
201	0x80	0.0
202	0x80	0.0
203	0x80	0.0
204	0x80	0.0
205	0x80	0.0
206	0x80	0.0
207	0x80	0.0
208	0x80	0.0
209	0x80	0.0
210	0x80	0.0
211	0x80	0.0
212	0x80	0.0
213	0x80	0.0
214	0x80	0.0
215	0x80	0.0
216	0x80	0.0
217	0x80	0.0
218	0x80	0.0
219	0x80	0.0
220	0x80	0.0
221	0x80	0.0
222	0x80	0.0
223	0x80	0.0
224	0x80	0.0
225	0x80	0.0
226	0x80	0.0
227	0x80	0.0
228	0x80	0.0
229	0x80	0.0
230	0x80	0.0
231	0x80	0.0
232	0x80	0.0
233	0x80	0.0
234	0x80	0.0
235	0x80	0.0
236	0x80	0.0
237	0x80	0.0
238	0x80	0.0
239	0x80	0.0
240	0x80	0.0
241	0x80	0.0
242	0x80	0.0
243	0x80	0.0
244	0x80	0.0
245	0x80	0.0
246	0x80	0.0
247	0x80	0.0
248	0x80	0.0
249	0x80	0.0
250	0x80	0.0
251	0x80	0.0
252	0x80	0.0
253	0x80	0.0
254	0x80	0.0
255	0x80	0.0

tfl.pseudo_qconst2 i1 [1, 4, 1, 32] scale=0.6232482 zero_point=-128
0	0x80	0.0
1	0x80	0.0
2	0x80	0.0
3	0x80	0.0
4	0x80	0.0
5	0x80	0.0
6	0x80	0.0
7	0x80	0.0
8	0x80	0.0
9	0x80	0.0
10	0x80	0.0
11	0x80	0.0
12	0x80	0.0
13	0x80	0.0
14	0x80	0.0
15	0x80	0.0
16	0x80	0.0
17	0x80	0.0
18	0x80	0.0
19	0x80	0.0
20	0x80	0.0
21	0x80	0.0
22	0x80	0.0
23	0x80	0.0
24	0x80	0.0
25	0x80	0.0
26	0x80	0.0
27	0x80	0.0
28	0x80	0.0
29	0x80	0.0
30	0x80	0.0
31	0x80	0.0
32	0x80	0.0
33	0x80	0.0
34	0x80	0.0
35	0x80	0.0
36	0x80	0.0
37	0x80	0.0
38	0x80	0.0
39	0x80	0.0
40	0x80	0.0
41	0x80	0.0
42	0x80	0.0
43	0x80	0.0
44	0x80	0.0
45	0x80	0.0
46	0x80	0.0
47	0x80	0.0
48	0x80	0.0
49	0x80	0.0
50	0x80	0.0
51	0x80	0.0
52	0x80	0.0
53	0x80	0.0
54	0x80	0.0
55	0x80	0.0
56	0x80	0.0
57	0x80	0.0
58	0x80	0.0
59	0x80	0.0
60	0x80	0.0
61	0x80	0.0
62	0x80	0.0
63	0x80	0.0
64	0x80	0.0
65	0x80	0.0
66	0x80	0.0
67	0x80	0.0
68	0x80	0.0
69	0x80	0.0
70	0x80	0.0
71	0x80	0.0
72	0x80	0.0
73	0x80	0.0
74	0x80	0.0
75	0x80	0.0
76	0x80	0.0
77	0x80	0.0
78	0x80	0.0
79	0x80	0.0
80	0x80	0.0
81	0x80	0.0
82	0x80	0.0
83	0x80	0.0
84	0x80	0.0
85	0x80	0.0
86	0x80	0.0
87	0x80	0.0
88	0x80	0.0
89	0x80	0.0
90	0x80	0.0
91	0x80	0.0
92	0x80	0.0
93	0x80	0.0
94	0x80	0.0
95	0x80	0.0
96	0x80	0.0
97	0x80	0.0
98	0x80	0.0
99	0x80	0.0
100	0x80	0.0
101	0x80	0.0
102	0x80	0.0
103	0x80	0.0
104	0x80	0.0
105	0x80	0.0
106	0x80	0.0
107	0x80	0.0
108	0x80	0.0
109	0x80	0.0
110	0x80	0.0
111	0x80	0.0
112	0x80	0.0
113	0x80	0.0
114	0x80	0.0
115	0x80	0.0
116	0x80	0.0
117	0x80	0.0
118	0x80	0.0
119	0x80	0.0
120	0x80	0.0
121	0x80	0.0
122	0x80	0.0
123	0x80	0.0
124	0x80	0.0
125	0x80	0.0
126	0x80	0.0
127	0x80	0.0

tfl.pseudo_qconst3 i1 [1, 2, 1, 40] scale=0.101960786 zero_point=-128
0	0x80	0.0
1	0x80	0.0
2	0x80	0.0
3	0x80	0.0
4	0x80	0.0
5	0x80	0.0
6	0x80	0.0
7	0x80	0.0
8	0x80	0.0
9	0x80	0.0
10	0x80	0.0
11	0x80	0.0
12	0x80	0.0
13	0x80	0.0
14	0x80	0.0
15	0x80	0.0
16	0x80	0.0
17	0x80	0.0
18	0x80	0.0
19	0x80	0.0
20	0x80	0.0
21	0x80	0.0
22	0x80	0.0
23	0x80	0.0
24	0x80	0.0
25	0x80	0.0
26	0x80	0.0
27	0x80	0.0
28	0x80	0.0
29	0x80	0.0
30	0x80	0.0
31	0x80	0.0
32	0x80	0.0
33	0x80	0.0
34	0x80	0.0
35	0x80	0.0
36	0x80	0.0
37	0x80	0.0
38	0x80	0.0
39	0x80	0.0
40	0x80	0.0
41	0x80	0.0
42	0x80	0.0
43	0x80	0.0
44	0x80	0.0
45	0x80	0.0
46	0x80	0.0
47	0x80	0.0
48	0x80	0.0
49	0x80	0.0
50	0x80	0.0
51	0x80	0.0
52	0x80	0.0
53	0x80	0.0
54	0x80	0.0
55	0x80	0.0
56	0x80	0.0
57	0x80	0.0
58	0x80	0.0
59	0x80	0.0
60	0x80	0.0
61	0x80	0.0
62	0x80	0.0
63	0x80	0.0
64	0x80	0.0
65	0x80	0.0
66	0x80	0.0
67	0x80	0.0
68	0x80	0.0
69	0x80	0.0
70	0x80	0.0
71	0x80	0.0
72	0x80	0.0
73	0x80	0.0
74	0x80	0.0
75	0x80	0.0
76	0x80	0.0
77	0x80	0.0
78	0x80	0.0
79	0x80	0.0

tfl.pseudo_qconst4 i1 [1, 14, 1, 64] scale=0.030474406 zero_point=-128
0	0x80	0.0
1	0x80	0.0
2	0x80	0.0
3	0x80	0.0
4	0x80	0.0
5	0x80	0.0
6	0x80	0.0
7	0x80	0.0
8	0x80	0.0
9	0x80	0.0
10	0x80	0.0
11	0x80	0.0
12	0x80	0.0
13	0x80	0.0
14	0x80	0.0
15	0x80	0.0
16	0x80	0.0
17	0x80	0.0
18	0x80	0.0
19	0x80	0.0
20	0x80	0.0
21	0x80	0.0
22	0x80	0.0
23	0x80	0.0
24	0x80	0.0
25	0x80	0.0
26	0x80	0.0
27	0x80	0.0
28	0x80	0.0
29	0x80	0.0
30	0x80	0.0
31	0x80	0.0
32	0x80	0.0
33	0x80	0.0
34	0x80	0.0
35	0x80	0.0
36	0x80	0.0
37	0x80	0.0
38	0x80	0.0
39	0x80	0.0
40	0x80	0.0
41	0x80	0.0
42	0x80	0.0
43	0x80	0.0
44	0x80	0.0
45	0x80	0.0
46	0x80	0.0
47	0x80	0.0
48	0x80	0.0
49	0x80	0.0
50	0x80	0.0
51	0x80	0.0
52	0x80	0.0
53	0x80	0.0
54	0x80	0.0
55	0x80	0.0
56	0x80	0.0
57	0x80	0.0
58	0x80	0.0
59	0x80	0.0
60	0x80	0.0
61	0x80	0.0
62	0x80	0.0
63	0x80	0.0
64	0x80	0.0
65	0x80	0.0
66	0x80	0.0
67	0x80	0.0
68	0x80	0.0
69	0x80	0.0
70	0x80	0.0
71	0x80	0.0
72	0x80	0.0
73	0x80	0.0
74	0x80	0.0
75	0x80	0.0
76	0x80	0.0
77	0x80	0.0
78	0x80	0.0
79	0x80	0.0
80	0x80	0.0
81	0x80	0.0
82	0x80	0.0
83	0x80	0.0
84	0x80	0.0
85	0x80	0.0
86	0x80	0.0
87	0x80	0.0
88	0x80	0.0
89	0x80	0.0
90	0x80	0.0
91	0x80	0.0
92	0x80	0.0
93	0x80	0.0
94	0x80	0.0
95	0x80	0.0
96	0x80	0.0
97	0x80	0.0
98	0x80	0.0
99	0x80	0.0
100	0x80	0.0
101	0x80	0.0
102	0x80	0.0
103	0x80	0.0
104	0x80	0.0
105	0x80	0.0
106	0x80	0.0
107	0x80	0.0
108	0x80	0.0
109	0x80	0.0
110	0x80	0.0
111	0x80	0.0
112	0x80	0.0
113	0x80	0.0
114	0x80	0.0
115	0x80	0.0
116	0x80	0.0
117	0x80	0.0
118	0x80	0.0
119	0x80	0.0
120	0x80	0.0
121	0x80	0.0
122	0x80	0.0
123	0x80	0.0
124	0x80	0.0
125	0x80	0.0
126	0x80	0.0
127	0x80	0.0
128	0x80	0.0
129	0x80	0.0
130	0x80	0.0
131	0x80	0.0
132	0x80	0.0
133	0x80	0.0
134	0x80	0.0
135	0x80	0.0
136	0x80	0.0
137	0x80	0.0
138	0x80	0.0
139	0x80	0.0
140	0x80	0.0
141	0x80	0.0
142	0x80	0.0
143	0x80	0.0
144	0x80	0.0
145	0x80	0.0
146	0x80	0.0
147	0x80	0.0
148	0x80	0.0
149	0x80	0.0
150	0x80	0.0
151	0x80	0.0
152	0x80	0.0
153	0x80	0.0
154	0x80	0.0
155	0x80	0.0
156	0x80	0.0
157	0x80	0.0
158	0x80	0.0
159	0x80	0.0
160	0x80	0.0
161	0x80	0.0
162	0x80	0.0
163	0x80	0.0
164	0x80	0.0
165	0x80	0.0
166	0x80	0.0
167	0x80	0.0
168	0x80	0.0
169	0x80	0.0
170	0x80	0.0
171	0x80	0.0
172	0x80	0.0
173	0x80	0.0
174	0x80	0.0
175	0x80	0.0
176	0x80	0.0
177	0x80	0.0
178	0x80	0.0
179	0x80	0.0
180	0x80	0.0
181	0x80	0.0
182	0x80	0.0
183	0x80	0.0
184	0x80	0.0
185	0x80	0.0
186	0x80	0.0
187	0x80	0.0
188	0x80	0.0
189	0x80	0.0
190	0x80	0.0
191	0x80	0.0
192	0x80	0.0
193	0x80	0.0
194	0x80	0.0
195	0x80	0.0
196	0x80	0.0
197	0x80	0.0
198	0x80	0.0
199	0x80	0.0
200	0x80	0.0
201	0x80	0.0
202	0x80	0.0
203	0x80	0.0
204	0x80	0.0
205	0x80	0.0
206	0x80	0.0
207	0x80	0.0
208	0x80	0.0
209	0x80	0.0
210	0x80	0.0
211	0x80	0.0
212	0x80	0.0
213	0x80	0.0
214	0x80	0.0
215	0x80	0.0
216	0x80	0.0
217	0x80	0.0
218	0x80	0.0
219	0x80	0.0
220	0x80	0.0
221	0x80	0.0
222	0x80	0.0
223	0x80	0.0
224	0x80	0.0
225	0x80	0.0
226	0x80	0.0
227	0x80	0.0
228	0x80	0.0
229	0x80	0.0
230	0x80	0.0
231	0x80	0.0
232	0x80	0.0
233	0x80	0.0
234	0x80	0.0
235	0x80	0.0
236	0x80	0.0
237	0x80	0.0
238	0x80	0.0
239	0x80	0.0
240	0x80	0.0
241	0x80	0.0
242	0x80	0.0
243	0x80	0.0
244	0x80	0.0
245	0x80	0.0
246	0x80	0.0
247	0x80	0.0
248	0x80	0.0
249	0x80	0.0
250	0x80	0.0
251	0x80	0.0
252	0x80	0.0
253	0x80	0.0
254	0x80	0.0
255	0x80	0.0
