kenobi.tflite (tflite, 60944 bytes, 18 tensors)

tfl.pseudo_qconst1 i1 [1, 1088] scale=0.004021376 zero_point=0
00000000: 0b02 02cf 01f0 11ee 03ee e9c7 ff0d e9f8
00000010: d5e2 e5c5 0cdd dbf2 18d5 c918 df01 e00f
00000020: 1bf2 0c0d fa25 01e7 df10 f6d1 0bfb 0d0a
00000030: 2c04 e7fd e6fc ddf2 e718 ded7 0ce2 f211
00000040: f208 15e6 01f2 19ff 0cf1 ecdd 0d0e faf9
00000050: 04fb eeef fa02 fb0a 09dc dff5 e408 fc0a
00000060: 12f5 02ec ee0a eaf6 f5f8 16e8 edfb f110
00000070: 1afd e9fa 0ddd ebf7 fa0b ffea 19ee 0b04
00000080: e90f 1e04 ece9 f4f2 f8f3 0aec 031d 03e6
00000090: 0cf9 f7db 00e7 001d fd02 f3f8 ff07 25f1
000000a0: 23dc f20e fc00 fdeb 14f0 33d8 e110 f612
000000b0: 1516 fd07 07ff e9ef f307 f1db 10fb 0dfb
000000c0: eefd 060f d9f4 f3f7 e4f8 fae6 fb19 ffe9
000000d0: fb12 d2e8 e5ec 061b f7ef 00f7 effd 13f4
000000e0: 09ee f3f5 11fa f4dd 0cdc 1ce0 dcff f2f1
000000f0: 1605 120d f907 01f0 06f0 f2f2 07ea 0410
0.044235136 0.008042752 0.008042752 -0.19704741 0.004021376 -0.064342014 0.06836339 -0.07238477
0.012064127 -0.07238477 -0.09249165 -0.22921842 -0.004021376 0.052277885 -0.09249165 -0.032171007
-0.17291917 -0.120641276 -0.10857715 -0.23726118 0.04825651 -0.14074816 -0.14879091 -0.05629926
0.09651302 -0.17291917 -0.22117567 0.09651302 -0.1327054 0.004021376 -0.12868403 0.060320638
0.10857715 -0.05629926 0.04825651 0.052277885 -0.024128255 0.14879091 0.004021376 -0.100534394
-0.1327054 0.064342014 -0.04021376 -0.18900467 0.044235136 -0.02010688 0.052277885 0.04021376
0.17694055 0.016085504 -0.100534394 -0.012064127 -0.10455577 -0.016085504 -0.14074816 -0.05629926
-0.100534394 0.09651302 -0.13672678 -0.16487642 0.04825651 -0.120641276 -0.05629926 0.06836339
-0.05629926 0.032171007 0.0844489 -0.10455577 0.004021376 -0.05629926 0.100534394 -0.004021376
0.04825651 -0.060320638 -0.08042752 -0.14074816 0.052277885 0.05629926 -0.024128255 -0.02814963
0.016085504 -0.02010688 -0.07238477 -0.06836339 -0.024128255 0.008042752 -0.02010688 0.04021376
0.036192384 -0.14476953 -0.1327054 -0.044235136 -0.11259852 0.032171007 -0.016085504 0.04021376
0.07238477 -0.044235136 0.008042752 -0.08042752 -0.07238477 0.04021376 -0.08847027 -0.04021376
-0.044235136 -0.032171007 0.08847027 -0.09651302 -0.07640614 -0.02010688 -0.060320638 0.064342014
0.10455577 -0.012064127 -0.09249165 -0.024128255 0.052277885 -0.14074816 -0.0844489 -0.036192384
-0.024128255 0.044235136 -0.004021376 -0.08847027 0.100534394 -0.07238477 0.044235136 0.016085504
-0.09249165 0.060320638 0.120641276 0.016085504 -0.08042752 -0.09249165 -0.04825651 -0.05629926
-0.032171007 -0.052277885 0.04021376 -0.08042752 0.012064127 0.1166199 0.012064127 -0.10455577
0.04825651 -0.02814963 -0.036192384 -0.14879091 0.0 -0.100534394 0.0 0.1166199
-0.012064127 0.008042752 -0.052277885 -0.032171007 -0.004021376 0.02814963 0.14879091 -0.060320638
0.14074816 -0.14476953 -0.05629926 0.05629926 -0.016085504 0.0 -0.012064127 -0.0844489
0.08042752 -0.064342014 0.20509017 -0.16085504 -0.12466265 0.064342014 -0.04021376 0.07238477
0.0844489 0.08847027 -0.012064127 0.02814963 0.02814963 -0.004021376 -0.09249165 -0.06836339
-0.052277885 0.02814963 -0.060320638 -0.14879091 0.064342014 -0.02010688 0.052277885 -0.02010688
-0.07238477 -0.012064127 0.024128255 0.060320638 -0.15683366 -0.04825651 -0.052277885 -0.036192384
-0.11259852 -0.032171007 -0.024128255 -0.10455577 -0.02010688 0.100534394 -0.004021376 -0.09249165
-0.02010688 0.07238477 -0.1849833 -0.09651302 -0.10857715 -0.08042752 0.024128255 0.10857715
-0.036192384 -0.06836339 0.0 -0.036192384 -0.06836339 -0.012064127 0.07640614 -0.04825651
0.036192384 -0.07238477 -0.052277885 -0.044235136 0.06836339 -0.024128255 -0.04825651 -0.14074816
0.04825651 -0.14476953 0.11259852 -0.12868403 -0.14476953 -0.004021376 -0.05629926 -0.060320638
0.08847027 0.02010688 0.07238477 0.052277885 -0.02814963 0.02814963 0.004021376 -0.064342014
0.024128255 -0.064342014 -0.05629926 -0.05629926 0.02814963 -0.08847027 0.016085504 0.064342014

tfl.pseudo_qconst3 i1 [64, 1, 1, 64]
00000000: e115 d2ff f227 51e3 3f98 1cbc f00d 7f3b
00000010: d006 c769 3005 10ef 38dd 251e 9829 d8fe
00000020: 2943 39cc 11f1 0cf1 fecb ee26 0630 1e1d
00000030: faea 33c5 ec13 2132 4103 2152 ff2f f49a
00000040: 08a8 3f3a 15e9 e2bb 12da 35dd f315 fce1
00000050: c8e0 e05f a855 0017 03ca 133d 2016 9cc5
00000060: 6100 b924 3b4d 0039 711b c324 04ea ea3d
00000070: 810b 046d b3c6 f818 d6c8 2402 36bd 65e2
00000080: 0caf fe34 c70e dcde 1132 289e a008 d952
00000090: d8e6 fb1a 5023 b7dc 1753 c606 28d4 db06
000000a0: bdff 7f28 13f9 f730 4002 55e2 114f eb05
000000b0: bb04 3b6c 39e0 27d3 6e3f 3dd8 0459 f6c1
000000c0: f217 3fe0 e137 33bb 4d56 fa41 317f c906
000000d0: 1ed7 e014 0505 e0fd d332 fa84 21f2 0722
000000e0: 0829 54cd 1b1a 0ea8 15ed 2128 e4cd d9b0
000000f0: ee57 9623 44da e2cc eefd a0e8 e639 25e6
-31 21 -46 -1 -14 39 81 -29
63 -104 28 -68 -16 13 127 59
-48 6 -57 105 48 5 16 -17
56 -35 37 30 -104 41 -40 -2
41 67 57 -52 17 -15 12 -15
-2 -53 -18 38 6 48 30 29
-6 -22 51 -59 -20 19 33 50
65 3 33 82 -1 47 -12 -102
8 -88 63 58 21 -23 -30 -69
18 -38 53 -35 -13 21 -4 -31
-56 -32 -32 95 -88 85 0 23
3 -54 19 61 32 22 -100 -59
97 0 -71 36 59 77 0 57
113 27 -61 36 4 -22 -22 61
-127 11 4 109 -77 -58 -8 24
-42 -56 36 2 54 -67 101 -30
12 -81 -2 52 -57 14 -36 -34
17 50 40 -98 -96 8 -39 82
-40 -26 -5 26 80 35 -73 -36
23 83 -58 6 40 -44 -37 6
-67 -1 127 40 19 -7 -9 48
64 2 85 -30 17 79 -21 5
-69 4 59 108 57 -32 39 -45
110 63 61 -40 4 89 -10 -63
-14 23 63 -32 -31 55 51 -69
77 86 -6 65 49 127 -55 6
30 -41 -32 20 5 5 -32 -3
-45 50 -6 -124 33 -14 7 34
8 41 84 -51 27 26 14 -88
21 -19 33 40 -28 -51 -39 -80
-18 87 -106 35 68 -38 -30 -52
-18 -3 -96 -24 -26 57 37 -26

tfl.pseudo_qconst5 i1 [1, 23, 1, 64]
00000000: daaa 3ec1 d081 7fe6 f64c 9766 41d0 c235
00000010: 1c7f 81c6 eddb c7c3 817a 81f4 7fce 7f41
00000020: 0eee eaed fef6 1637 f881 743a c27f c9ec
00000030: 9728 ff9c 6748 817b 0c81 e4e2 0adb 8192
00000040: 0ceb 14b1 e3b5 39ba f57f e17f 06eb a81e
00000050: e52b a8cc bad0 f5cd bd77 97dc 7b2e 6e7f
00000060: 33f1 0605 c72d fe35 d0bd 6f7f c57b 3a1a
00000070: 810f 1ebd 5e58 e67f 0ba5 f343 f91f 8bb6
00000080: f932 0495 3ac6 f881 fe77 da55 0afb 8802
00000090: bb0d addd e5ff 1716 dd7f aee9 495c 1238
000000a0: 2be7 e30b 8710 fff6 dcf4 502d f3f2 d1b4
000000b0: ad22 41c6 4f59 fa2f d2eb e168 05a6 cd16
000000c0: ce0c c481 08e8 eea7 f22f 6b48 074a b506
000000d0: f91a bbd7 ecad 350a fe5f d2d6 454b 104b
000000e0: 26d7 f915 af18 b2a4 f218 684e 2211 e101
000000f0: a92d 21d7 1d41 ff42 e915 f473 11b1 fc28
-38 -86 62 -63 -48 -127 127 -26
-10 76 -105 102 65 -48 -62 53
28 127 -127 -58 -19 -37 -57 -61
-127 122 -127 -12 127 -50 127 65
14 -18 -22 -19 -2 -10 22 55
-8 -127 116 58 -62 127 -55 -20
-105 40 -1 -100 103 72 -127 123
12 -127 -28 -30 10 -37 -127 -110
12 -21 20 -79 -29 -75 57 -70
-11 127 -31 127 6 -21 -88 30
-27 43 -88 -52 -70 -48 -11 -51
-67 119 -105 -36 123 46 110 127
51 -15 6 5 -57 45 -2 53
-48 -67 111 127 -59 123 58 26
-127 15 30 -67 94 88 -26 127
11 -91 -13 67 -7 31 -117 -74
-7 50 4 -107 58 -58 -8 -127
-2 119 -38 85 10 -5 -120 2
-69 13 -83 -35 -27 -1 23 22
-35 127 -82 -23 73 92 18 56
43 -25 -29 11 -121 16 -1 -10
-36 -12 80 45 -13 -14 -47 -76
-83 34 65 -58 79 89 -6 47
-46 -21 -31 104 5 -90 -51 22
-50 12 -60 -127 8 -24 -18 -89
-14 47 107 72 7 74 -75 6
-7 26 -69 -41 -20 -83 53 10
-2 95 -46 -42 69 75 16 75
38 -41 -7 21 -81 24 -78 -92
-14 24 104 78 34 17 -31 1
-87 45 33 -41 29 65 -1 66
-23 21 -12 115 17 -79 -4 40

tfl.pseudo_qconst7 i1 [64, 1, 1, 64]
00000000: 15fc 0732 a7f4 a7d3 05d2 2d0d 45ca f9ee
00000010: b5fe 7fd6 4ddc 7e53 1be7 2377 0a45 10de
00000020: 05f9 0040 23c2 0ce7 40c9 ba34 00d0 f545
00000030: 1908 f65a ca12 5b26 d748 2d2d 302e d2b2
00000040: e6bf d23b ca7f 0aeb f6e7 1cd0 750e e509
00000050: bf35 5216 2e10 1d05 5a04 29ed e3d5 3be7
00000060: b6ae f513 fe08 e7d1 f7ee 142a 3c09 eafd
00000070: b7df fae6 090c ebe1 304d f60d 9e2d e1c7
00000080: 02e0 fb07 2ed0 af2e e2a4 57f4 7923 2b7f
00000090: 42a6 2dd7 29d0 32f8 d728 97cd e8c0 1ed0
000000a0: ddf9 11fc 174a 309f 5626 1909 28d4 f923
000000b0: e314 aef2 fe26 5d03 b2d3 35e9 d906 0f24
000000c0: 0f53 fd2c dbab b9ef 2729 2518 1027 edfa
000000d0: 0445 9eea bef5 0ea6 192a 1881 0ee1 cd29
000000e0: db11 08fc 2540 bde1 1d9d dc42 1620 ec21
000000f0: 3da8 1dfd efea 3b3f da1e 255b c2f1 33e4
21 -4 7 50 -89 -12 -89 -45
5 -46 45 13 69 -54 -7 -18
-75 -2 127 -42 77 -36 126 83
27 -25 35 119 10 69 16 -34
5 -7 0 64 35 -62 12 -25
64 -55 -70 52 0 -48 -11 69
25 8 -10 90 -54 18 91 38
-41 72 45 45 48 46 -46 -78
-26 -65 -46 59 -54 127 10 -21
-10 -25 28 -48 117 14 -27 9
-65 53 82 22 46 16 29 5
90 4 41 -19 -29 -43 59 -25
-74 -82 -11 19 -2 8 -25 -47
-9 -18 20 42 60 9 -22 -3
-73 -33 -6 -26 9 12 -21 -31
48 77 -10 13 -98 45 -31 -57
2 -32 -5 7 46 -48 -81 46
-30 -92 87 -12 121 35 43 127
66 -90 45 -41 41 -48 50 -8
-41 40 -105 -51 -24 -64 30 -48
-35 -7 17 -4 23 74 48 -97
86 38 25 9 40 -44 -7 35
-29 20 -82 -14 -2 38 93 3
-78 -45 53 -23 -39 6 15 36
15 83 -3 44 -37 -85 -71 -17
39 41 37 24 16 39 -19 -6
4 69 -98 -22 -66 -11 14 -90
25 42 24 -127 14 -31 -51 41
-37 17 8 -4 37 64 -67 -31
29 -99 -36 66 22 32 -20 33
61 -88 29 -3 -17 -22 59 63
-38 30 37 91 -62 -15 51 -28

tfl.pseudo_qconst9 i1 [1, 15, 1, 32]
00000000: fdf9 1507 1acd ee91 a67f 8147 4450 8e22
00000010: 9647 edf9 f57f 9200 d281 f896 d4cf 477f
00000020: edef 2d60 540c e881 ec32 9417 3e45 8111
00000030: 9c40 ad0a 113a 81c1 10e7 5481 dabc 6665
00000040: 221f 0358 2e29 d2c5 b53b b385 1d9e d61a
00000050: c8ff 231b 520e e0f8 40cf 45ee b41b 020b
00000060: f922 2ae2 dc17 e33d cb60 e599 a081 0157
00000070: d4e5 171b 43fd ddf4 0d9f 4ab2 efee fbb1
00000080: e232 35b8 b91d f56b f77a d2ea f1e5 415e
00000090: 12fa f41d 2405 08ff 0fb8 0153 f526 11a1
000000a0: 0b0c 33d6 c4b3 5117 162c d7ca 011f 0922
000000b0: 043e e95d ce32 d3ca 161c b4a4 670e dc9b
000000c0: edef 1aa3 34b3 7465 21dd 01e2 b13b 3729
000000d0: d83c 1455 ea45 d5aa 462d 9ecf 7f40 33ea
000000e0: dcd7 0d95 ebad 7ff7 ece2 ea3a a042 e40b
000000f0: 03fb 3035 dd66 cac3 dfdc e48d 590d d944
-3 -7 21 7 26 -51 -18 -111
-90 127 -127 71 68 80 -114 34
-106 71 -19 -7 -11 127 -110 0
-46 -127 -8 -106 -44 -49 71 127
-19 -17 45 96 84 12 -24 -127
-20 50 -108 23 62 69 -127 17
-100 64 -83 10 17 58 -127 -63
16 -25 84 -127 -38 -68 102 101
34 31 3 88 46 41 -46 -59
-75 59 -77 -123 29 -98 -42 26
-56 -1 35 27 82 14 -32 -8
64 -49 69 -18 -76 27 2 11
-7 34 42 -30 -36 23 -29 61
-53 96 -27 -103 -96 -127 1 87
-44 -27 23 27 67 -3 -35 -12
13 -97 74 -78 -17 -18 -5 -79
-30 50 53 -72 -71 29 -11 107
-9 122 -46 -22 -15 -27 65 94
18 -6 -12 29 36 5 8 -1
15 -72 1 83 -11 38 17 -95
11 12 51 -42 -60 -77 81 23
22 44 -41 -54 1 31 9 34
4 62 -23 93 -50 50 -45 -54
22 28 -76 -92 103 14 -36 -101
-19 -17 26 -93 52 -77 116 101
33 -35 1 -30 -79 59 55 41
-40 60 20 85 -22 69 -43 -86
70 45 -98 -49 127 64 51 -22
-36 -41 13 -107 -21 -83 127 -9
-20 -30 -22 58 -96 66 -28 11
3 -5 48 53 -35 102 -54 -61
-33 -36 -28 -115 89 13 -39 68

tfl.pseudo_qconst11 i1 [1, 9, 1, 32]
00000000: dad5 3e1a 1781 f8f3 770e 13bf 92df 6941
00000010: 62bd 36c9 0c03 41fa 811d 0225 af7f 1604
00000020: 1506 65c4 5f85 2f1c 7f57 fc9b 879f 363c
00000030: 40f9 0f1d ee2f fc73 9d1d 49d4 cc0c e97f
00000040: d24c 7ffd edac 3c2e 6137 2281 daed 0c86
00000050: 2ea4 342c f5cf 0274 c497 298c 53d2 b44e
00000060: a03a 49c7 25e1 34fe c87f 4900 95d9 f981
00000070: 7f81 7f26 f8d0 e97f 9b9c 74de ebde 2116
00000080: 0036 47f1 c3bc f610 b014 fd36 81c9 eb26
00000090: 4aa9 5d52 d042 cd58 846d 5d7f f134 313d
000000a0: 8102 2fd3 81db cecf f27f f538 c43f 37b6
000000b0: bdd0 2a7f cb36 b3e7 cb72 ed70 d7c5 68f7
000000c0: e332 f5a8 0bf5 f029 bd37 8154 827f 21a7
000000d0: f5b9 b447 fa7f 0662 4974 7f4a 15b7 4825
000000e0: 9447 23ce f5fb 5278 c03f 9fcf c361 cca1
000000f0: eaf6 9473 df52 81ed 4b7f 53ac d6c9 bbf4
-38 -43 62 26 23 -127 -8 -13
119 14 19 -65 -110 -33 105 65
98 -67 54 -55 12 3 65 -6
-127 29 2 37 -81 127 22 4
21 6 101 -60 95 -123 47 28
127 87 -4 -101 -121 -97 54 60
64 -7 15 29 -18 47 -4 115
-99 29 73 -44 -52 12 -23 127
-46 76 127 -3 -19 -84 60 46
97 55 34 -127 -38 -19 12 -122
46 -92 52 44 -11 -49 2 116
-60 -105 41 -116 83 -46 -76 78
-96 58 73 -57 37 -31 52 -2
-56 127 73 0 -107 -39 -7 -127
127 -127 127 38 -8 -48 -23 127
-101 -100 116 -34 -21 -34 33 22
0 54 71 -15 -61 -68 -10 16
-80 20 -3 54 -127 -55 -21 38
74 -87 93 82 -48 66 -51 88
-124 109 93 127 -15 52 49 61
-127 2 47 -45 -127 -37 -50 -49
-14 127 -11 56 -60 63 55 -74
-67 -48 42 127 -53 54 -77 -25
-53 114 -19 112 -41 -59 104 -9
-29 50 -11 -88 11 -11 -16 41
-67 55 -127 84 -126 127 33 -89
-11 -71 -76 71 -6 127 6 98
73 116 127 74 21 -73 72 37
-108 71 35 -50 -11 -5 82 120
-64 63 -97 -49 -61 97 -52 -95
-22 -10 -108 115 -33 82 -127 -19
75 127 83 -84 -42 -55 -69 -12

tfl.pseudo_qconst13 i1 [64, 1, 1, 64]
00000000: 12c9 c41d a5ae 320f f0e9 05f8 7f6f b34d
00000010: 2f60 2200 fd3c cc00 4be6 00cd ccfb 272b
00000020: fc01 0447 2709 07e0 d5ff c7c7 3b33 3b16
00000030: 3726 edf4 f559 dab5 fb0a 3909 e949 06d7
00000040: 1419 fd18 7bf3 b4de c633 2e14 b7e9 d837
00000050: 640b fb1e d8b5 cfc5 f72a 0edd 1981 e4ed
00000060: 1bfe bcf6 f3d6 1fb1 1730 d8e1 0d35 0ed2
00000070: 1c1c f2cb e7f3 b7de 53ae 3d1e f506 e335
00000080: b13e c2d6 f7b4 0f67 b121 2a3e 5d45 359a
00000090: fa15 cd18 ebd5 1164 01b6 d1d8 ffed 4cc1
000000a0: d21e f242 fb58 ed56 7f98 184c fde5 e248
000000b0: 3320 d23c 5029 df94 c124 47d6 32ad faca
000000c0: ea30 3326 ef3d 4538 1909 1f2b e611 00f9
000000d0: b9e3 a716 2516 1316 eccf 51d8 27ba 6ef2
000000e0: 125f 13b0 af52 dfdb e0d7 f13b 0b54 fcd8
000000f0: 1db4 2f20 fa15 2923 faf1 dbc6 812a 0602
18 -55 -60 29 -91 -82 50 15
-16 -23 5 -8 127 111 -77 77
47 96 34 0 -3 60 -52 0
75 -26 0 -51 -52 -5 39 43
-4 1 4 71 39 9 7 -32
-43 -1 -57 -57 59 51 59 22
55 38 -19 -12 -11 89 -38 -75
-5 10 57 9 -23 73 6 -41
20 25 -3 24 123 -13 -76 -34
-58 51 46 20 -73 -23 -40 55
100 11 -5 30 -40 -75 -49 -59
-9 42 14 -35 25 -127 -28 -19
27 -2 -68 -10 -13 -42 31 -79
23 48 -40 -31 13 53 14 -46
28 28 -14 -53 -25 -13 -73 -34
83 -82 61 30 -11 6 -29 53
-79 62 -62 -42 -9 -76 15 103
-79 33 42 62 93 69 53 -102
-6 21 -51 24 -21 -43 17 100
1 -74 -47 -40 -1 -19 76 -63
-46 30 -14 66 -5 88 -19 86
127 -104 24 76 -3 -27 -30 72
51 32 -46 60 80 41 -33 -108
-63 36 71 -42 50 -83 -6 -54
-22 48 51 38 -17 61 69 56
25 9 31 43 -26 17 0 -7
-71 -29 -89 22 37 22 19 22
-20 -49 81 -40 39 -70 110 -14
18 95 19 -80 -81 82 -33 -37
-32 -41 -15 59 11 84 -4 -40
29 -76 47 32 -6 21 41 35
-6 -15 -37 -58 -127 42 6 2

tfl.pseudo_qconst15 i1 [1, 11, 1, 32]
00000000: e852 b7d3 442b c7af ac81 18f0 b37f 79e4
00000010: 56c7 b818 09c6 26e2 d6f7 c80a 4ee6 fdd6
00000020: 0f6d b79b 4af0 eb0a 19c8 0ffa 033b 3907
00000030: 0721 daf3 4a07 2c09 a4d1 d6fb 2ef9 2fa9
00000040: e1eb 1eea 44ce dae5 1a06 ebf8 4985 2e59
00000050: ad2e f43c 9c28 1ffb c34d c124 2e25 4eb8
00000060: c39c 6a24 56fc dc45 2313 e842 308c 382a
00000070: 4e46 3c44 817f 1b16 af1e 81b6 fb0d 7206
00000080: b09f c257 18eb d939 5548 184d dd01 7110
00000090: bbc4 a524 050e 0926 7fd8 c881 ea35 0b57
000000a0: 050f ba37 92f5 a77f 450f 097f bafb c27f
000000b0: 0ab7 8153 d93a 6b2a 523a 5aad f750 ba01
000000c0: fa7d dbf3 c5bf b84c 0d2d aa65 f362 81e9
000000d0: eaa2 3435 c7f7 37bd 7209 01a4 0602 87ba
000000e0: b512 6304 abdd b91a 4c1c c261 c64f c4e9
000000f0: 38b7 25c9 8ab5 b481 24cb b5a7 fb11 fca7
-24 82 -73 -45 68 43 -57 -81
-84 -127 24 -16 -77 127 121 -28
86 -57 -72 24 9 -58 38 -30
-42 -9 -56 10 78 -26 -3 -42
15 109 -73 -101 74 -16 -21 10
25 -56 15 -6 3 59 57 7
7 33 -38 -13 74 7 44 9
-92 -47 -42 -5 46 -7 47 -87
-31 -21 30 -22 68 -50 -38 -27
26 6 -21 -8 73 -123 46 89
-83 46 -12 60 -100 40 31 -5
-61 77 -63 36 46 37 78 -72
-61 -100 106 36 86 -4 -36 69
35 19 -24 66 48 -116 56 42
78 70 60 68 -127 127 27 22
-81 30 -127 -74 -5 13 114 6
-80 -97 -62 87 24 -21 -39 57
85 72 24 77 -35 1 113 16
-69 -60 -91 36 5 14 9 38
127 -40 -56 -127 -22 53 11 87
5 15 -70 55 -110 -11 -89 127
69 15 9 127 -70 -5 -62 127
10 -73 -127 83 -39 58 107 42
82 58 90 -83 -9 80 -70 1
-6 125 -37 -13 -59 -65 -72 76
13 45 -86 101 -13 98 -127 -23
-22 -94 52 53 -57 -9 55 -67
114 9 1 -92 6 2 -121 -70
-75 18 99 4 -85 -35 -71 26
76 28 -62 97 -58 79 -60 -23
56 -73 37 -55 -118 -75 -76 -127
36 -53 -75 -89 -5 17 -4 -89

tfl.pseudo_qconst17 i1 [1, 7, 1, 32]
00000000: 8d63 db07 6189 27ca 45cb 73a8 bccd 3d93
00000010: 60a2 30ef 17a9 e601 e9ca ca1f 31d9 4081
00000020: ab0d d581 57f1 2538 d030 1001 50a1 7fc5
00000030: ddb6 17ed 7faa d725 1781 7f41 0b14 26d9
00000040: 11db 2fb4 db62 970b 0b2d 940c 37f3 e681
00000050: 1578 c6db 4ddc bf3c cc71 fc74 edcf 3bad
00000060: fb9b 448c fb26 bc81 1aa2 817f 4d08 9fdf
00000070: 816c 7f50 38ee 3860 f957 df72 ed20 d889
00000080: 7f7f 7fda 5535 cbe1 571f 2a2e 5b1c d313
00000090: e681 773f e228 7f07 2e07 f2d5 a8db e584
000000a0: 5167 2102 817f 1e9b 8d7f 2842 c6dc ed5b
000000b0: a90a 5204 480d 93f0 2eb1 0b81 b613 aff2
000000c0: 57de f223 9c3b 7fa2 8148 d3b5 817f 536f
000000d0: 9779 1281 497f a081 7fa5 2192 817f 8117
-115 99 -37 7 97 -119 39 -54
69 -53 115 -88 -68 -51 61 -109
96 -94 48 -17 23 -87 -26 1
-23 -54 -54 31 49 -39 64 -127
-85 13 -43 -127 87 -15 37 56
-48 48 16 1 80 -95 127 -59
-35 -74 23 -19 127 -86 -41 37
23 -127 127 65 11 20 38 -39
17 -37 47 -76 -37 98 -105 11
11 45 -108 12 55 -13 -26 -127
21 120 -58 -37 77 -36 -65 60
-52 113 -4 116 -19 -49 59 -83
-5 -101 68 -116 -5 38 -68 -127
26 -94 -127 127 77 8 -97 -33
-127 108 127 80 56 -18 56 96
-7 87 -33 114 -19 32 -40 -119
127 127 127 -38 85 53 -53 -31
87 31 42 46 91 28 -45 19
-26 -127 119 63 -30 40 127 7
46 7 -14 -43 -88 -37 -27 -124
81 103 33 2 -127 127 30 -101
-115 127 40 66 -58 -36 -19 91
-87 10 82 4 72 13 -109 -16
46 -79 11 -127 -74 19 -81 -14
87 -34 -14 35 -100 59 127 -94
-127 72 -45 -75 -127 127 83 111
-105 121 18 -127 73 127 -96 -127
127 -91 33 -110 -127 127 -127 23

tfl.pseudo_qconst19 i1 [64, 1, 1, 32]
00000000: e3ce e5c5 81bb 5012 4ba9 cf0f 08bd 9e2d
00000010: a010 b246 09cd 1b04 17fb c6c0 1cfc f336
00000020: b92b ece4 11e5 d326 db81 d1a7 8cd6 2ff9
00000030: e839 e24e 15b3 ea3c 3344 b327 ff24 1925
00000040: 36ed e826 f9f6 17d8 f2e0 e181 2e1f efbf
00000050: faf2 f005 1de4 ded1 00f9 ccee 1f51 3de1
00000060: e331 b531 12e0 dde9 e4e2 9521 150c e655
00000070: ebea aae4 f8c7 583a 30e8 81fc ae11 d2ee
00000080: 3616 eadc 24d3 11dd 0a18 e5f0 caea 26ed
00000090: 913c 3e53 6b17 e7d3 fb81 0156 16f6 0934
000000a0: bd42 3351 cdcb 69e6 0c11 81dd 6034 45de
000000b0: e548 cbfd a410 b9ec b33e ab06 afdf 1dc1
000000c0: e8eb 13f8 0838 00d4 da35 fa1a 4fb5 e1e6
000000d0: be00 f347 32f9 81f0 2ffe 201d f0cf b6c2
000000e0: 14de 27ed d9a8 a6ef 421c c936 1dd1 f0e8
000000f0: 1a6d 3f07 16be 2322 81b7 35e0 a632 b212
-29 -50 -27 -59 -127 -69 80 18
75 -87 -49 15 8 -67 -98 45
-96 16 -78 70 9 -51 27 4
23 -5 -58 -64 28 -4 -13 54
-71 43 -20 -28 17 -27 -45 38
-37 -127 -47 -89 -116 -42 47 -7
-24 57 -30 78 21 -77 -22 60
51 68 -77 39 -1 36 25 37
54 -19 -24 38 -7 -10 23 -40
-14 -32 -31 -127 46 31 -17 -65
-6 -14 -16 5 29 -28 -34 -47
0 -7 -52 -18 31 81 61 -31
-29 49 -75 49 18 -32 -35 -23
-28 -30 -107 33 21 12 -26 85
-21 -22 -86 -28 -8 -57 88 58
48 -24 -127 -4 -82 17 -46 -18
54 22 -22 -36 36 -45 17 -35
10 24 -27 -16 -54 -22 38 -19
-111 60 62 83 107 23 -25 -45
-5 -127 1 86 22 -10 9 52
-67 66 51 81 -51 -53 105 -26
12 17 -127 -35 96 52 69 -34
-27 72 -53 -3 -92 16 -71 -20
-77 62 -85 6 -81 -33 29 -63
-24 -21 19 -8 8 56 0 -44
-38 53 -6 26 79 -75 -31 -26
-66 0 -13 71 50 -7 -127 -16
47 -2 32 29 -16 -49 -74 -62
20 -34 39 -19 -39 -88 -90 -17
66 28 -55 54 29 -47 -16 -24
26 109 63 7 22 -66 35 34
-127 -73 53 -32 -90 50 -78 18

tfl.pseudo_qconst21 i1 [1, 5, 1, 32]
00000000: 8117 7f1b 7b20 7f1e de81 2a0b 3c33 81ff
00000010: 3624 8112 8b21 0981 3d0b bdf6 7f29 f90a
00000020: 3e3a 1dc5 0616 b1d7 98ad 1c05 7f1c 9fd1
00000030: 43a4 ab1b 7f57 92a7 0f9c a092 4110 2d7f
00000040: 23f8 ea03 b7dd c381 e1c2 5c4b 6abe c5b3
00000050: 133c c754 262a bf2a 8130 08ed 3081 e275
00000060: 6be6 cbab 8181 667c 78a3 6051 2381 4937
00000070: 7f7f c27f 5081 815f 0cda 7f7f c8d1 a9aa
00000080: 2181 bd81 20b4 ed41 81d8 7f7f eba7 fa7f
00000090: 3df3 1ad6 7bc8 aa12 7281 6f12 3d62 8188
-127 23 127 27 123 32 127 30
-34 -127 42 11 60 51 -127 -1
54 36 -127 18 -117 33 9 -127
61 11 -67 -10 127 41 -7 10
62 58 29 -59 6 22 -79 -41
-104 -83 28 5 127 28 -97 -47
67 -92 -85 27 127 87 -110 -89
15 -100 -96 -110 65 16 45 127
35 -8 -22 3 -73 -35 -61 -127
-31 -62 92 75 106 -66 -59 -77
19 60 -57 84 38 42 -65 42
-127 48 8 -19 48 -127 -30 117
107 -26 -53 -85 -127 -127 102 124
120 -93 96 81 35 -127 73 55
127 127 -62 127 80 -127 -127 95
12 -38 127 127 -56 -47 -87 -86
33 -127 -67 -127 32 -76 -19 65
-127 -40 127 127 -21 -89 -6 127
61 -13 26 -42 123 -56 -86 18
114 -127 111 18 61 98 -127 -120

tfl.pseudo_qconst23 i1 [32, 5, 1, 40]
00000000: 5f7f 2833 fcfe 52fe 28e2 f4e2 32ba f40d
00000010: e443 4519 22c4 fefb 25f9 4c15 091d 192b
00000020: 22e7 1bd0 3b14 795d 4327 3906 c412 1917
00000030: 410a f5e3 f7c4 eb16 0c71 1a0e 2cd3 2d06
00000040: ce07 e0e5 28d6 1c40 20bd 0d1b 37f2 4c22
00000050: 7141 25be e7f5 0421 46fc e6c4 13a3 ead4
00000060: 3636 56fe f1d7 1ce5 1ee4 2127 2b3a ed35
00000070: f7d4 d2e7 3f36 6154 3912 cbcd acff 2107
00000080: 02d7 f6f9 2cd4 19dd f012 6a24 09f9 cad2
00000090: cef2 fc05 d612 121a 05fe c814 111a 2714
000000a0: 3ce3 d4ce d3ba ed53 f51a f10b da1b 11c3
000000b0: 1958 43fd 02df d4f6 b8d4 fcde 23fc daeb
000000c0: 14fd f205 2516 3808 8db9 ec31 fad4 f2e1
000000d0: f3c6 c9c4 a9c4 8fe2 f10a 13aa ff52 2014
000000e0: 2c23 142e 1e14 ff05 c032 e5e5 dbd0 86cb
000000f0: c5d4 5f55 5432 3001 c6ea 0611 d4c1 8f1c
95 127 40 51 -4 -2 82 -2
40 -30 -12 -30 50 -70 -12 13
-28 67 69 25 34 -60 -2 -5
37 -7 76 21 9 29 25 43
34 -25 27 -48 59 20 121 93
67 39 57 6 -60 18 25 23
65 10 -11 -29 -9 -60 -21 22
12 113 26 14 44 -45 45 6
-50 7 -32 -27 40 -42 28 64
32 -67 13 27 55 -14 76 34
113 65 37 -66 -25 -11 4 33
70 -4 -26 -60 19 -93 -22 -44
54 54 86 -2 -15 -41 28 -27
30 -28 33 39 43 58 -19 53
-9 -44 -46 -25 63 54 97 84
57 18 -53 -51 -84 -1 33 7
2 -41 -10 -7 44 -44 25 -35
-16 18 106 36 9 -7 -54 -46
-50 -14 -4 5 -42 18 18 26
5 -2 -56 20 17 26 39 20
60 -29 -44 -50 -45 -70 -19 83
-11 26 -15 11 -38 27 17 -61
25 88 67 -3 2 -33 -44 -10
-72 -44 -4 -34 35 -4 -38 -21
20 -3 -14 5 37 22 56 8
-115 -71 -20 49 -6 -44 -14 -31
-13 -58 -55 -60 -87 -60 -113 -30
-15 10 19 -86 -1 82 32 20
44 35 20 46 30 20 -1 5
-64 50 -27 -27 -37 -48 -122 -53
-59 -44 95 85 84 50 48 1
-58 -22 6 17 -44 -63 -113 28

tfl.pseudo_qconst24 i1 [1, 22, 1, 64] scale=0.037566744 zero_point=-128
00000000: 8080 8080 8080 8080 8080 8080 8080 8080
00000010: 8080 8080 8080 8080 8080 8080 8080 8080
00000020: 8080 8080 8080 8080 8080 8080 8080 8080
00000030: 8080 8080 8080 8080 8080 8080 8080 8080
00000040: 8080 8080 8080 8080 8080 8080 8080 8080
00000050: 8080 8080 8080 8080 8080 8080 8080 8080
00000060: 8080 8080 8080 8080 8080 8080 8080 8080
00000070: 8080 8080 8080 8080 8080 8080 8080 8080
00000080: 8080 8080 8080 8080 8080 8080 8080 8080
00000090: 8080 8080 8080 8080 8080 8080 8080 8080
000000a0: 8080 8080 8080 8080 8080 8080 8080 8080
000000b0: 8080 8080 8080 8080 8080 8080 8080 8080
000000c0: 8080 8080 8080 8080 8080 8080 8080 8080
000000d0: 8080 8080 8080 8080 8080 8080 8080 8080
000000e0: 8080 8080 8080 8080 8080 8080 8080 8080
000000f0: 8080 8080 8080 8080 8080 8080 8080 8080
0.0 0.0 0.0 0.0 0.0 0.0 0.0 0.0
0.0 0.0 0.0 0.0 0.0 0.0 0.0 0.0
0.0 0.0 0.0 0.0 0.0 0.0 0.0 0.0
0.0 0.0 0.0 0.0 0.0 0.0 0.0 0.0
0.0 0.0 0.0 0.0 0.0 0.0 0.0 0.0
0.0 0.0 0.0 0.0 0.0 0.0 0.0 0.0
0.0 0.0 0.0 0.0 0.0 0.0 0.0 0.0
0.0 0.0 0.0 0.0 0.0 0.0 0.0 0.0
0.0 0.0 0.0 0.0 0.0 0.0 0.0 0.0
0.0 0.0 0.0 0.0 0.0 0.0 0.0 0.0
0.0 0.0 0.0 0.0 0.0 0.0 0.0 0.0
0.0 0.0 0.0 0.0 0.0 0.0 0.0 0.0
0.0 0.0 0.0 0.0 0.0 0.0 0.0 0.0
0.0 0.0 0.0 0.0 0.0 0.0 0.0 0.0
0.0 0.0 0.0 0.0 0.0 0.0 0.0 0.0
0.0 0.0 0.0 0.0 0.0 0.0 0.0 0.0
0.0 0.0 0.0 0.0 0.0 0.0 0.0 0.0
0.0 0.0 0.0 0.0 0.0 0.0 0.0 0.0
0.0 0.0 0.0 0.0 0.0 0.0 0.0 0.0
0.0 0.0 0.0 0.0 0.0 0.0 0.0 0.0
0.0 0.0 0.0 0.0 0.0 0.0 0.0 0.0
0.0 0.0 0.0 0.0 0.0 0.0 0.0 0.0
0.0 0.0 0.0 0.0 0.0 0.0 0.0 0.0
0.0 0.0 0.0 0.0 0.0 0.0 0.0 0.0
0.0 0.0 0.0 0.0 0.0 0.0 0.0 0.0
0.0 0.0 0.0 0.0 0.0 0.0 0.0 0.0
0.0 0.0 0.0 0.0 0.0 0.0 0.0 0.0
0.0 0.0 0.0 0.0 0.0 0.0 0.0 0.0
0.0 0.0 0.0 0.0 0.0 0.0 0.0 0.0
0.0 0.0 0.0 0.0 0.0 0.0 0.0 0.0
0.0 0.0 0.0 0.0 0.0 0.0 0.0 0.0
0.0 0.0 0.0 0.0 0.0 0.0 0.0 0.0

tfl.pseudo_qconst25 i1 [1, 16, 1, 64] scale=0.031549577 zero_point=-128
00000000: 8080 8080 8080 8080 8080 8080 8080 8080
00000010: 8080 8080 8080 8080 8080 8080 8080 8080
00000020: 8080 8080 8080 8080 8080 8080 8080 8080
00000030: 8080 8080 8080 8080 8080 8080 8080 8080
00000040: 8080 8080 8080 8080 8080 8080 8080 8080
00000050: 8080 8080 8080 8080 8080 8080 8080 8080
00000060: 8080 8080 8080 8080 8080 8080 8080 8080
00000070: 8080 8080 8080 8080 8080 8080 8080 8080
00000080: 8080 8080 8080 8080 8080 8080 8080 8080
00000090: 8080 8080 8080 8080 8080 8080 8080 8080
000000a0: 8080 8080 8080 8080 8080 8080 8080 8080
000000b0: 8080 8080 8080 8080 8080 8080 8080 8080
000000c0: 8080 8080 8080 8080 8080 8080 8080 8080
000000d0: 8080 8080 8080 8080 8080 8080 8080 8080
000000e0: 8080 8080 8080 8080 8080 8080 8080 8080
000000f0: 8080 8080 8080 8080 8080 8080 8080 8080
0.0 0.0 0.0 0.0 0.0 0.0 0.0 0.0
0.0 0.0 0.0 0.0 0.0 0.0 0.0 0.0
0.0 0.0 0.0 0.0 0.0 0.0 0.0 0.0
0.0 0.0 0.0 0.0 0.0 0.0 0.0 0.0
0.0 0.0 0.0 0.0 0.0 0.0 0.0 0.0
0.0 0.0 0.0 0.0 0.0 0.0 0.0 0.0
0.0 0.0 0.0 0.0 0.0 0.0 0.0 0.0
0.0 0.0 0.0 0.0 0.0 0.0 0.0 0.0
0.0 0.0 0.0 0.0 0.0 0.0 0.0 0.0
0.0 0.0 0.0 0.0 0.0 0.0 0.0 0.0
0.0 0.0 0.0 0.0 0.0 0.0 0.0 0.0
0.0 0.0 0.0 0.0 0.0 0.0 0.0 0.0
0.0 0.0 0.0 0.0 0.0 0.0 0.0 0.0
0.0 0.0 0.0 0.0 0.0 0.0 0.0 0.0
0.0 0.0 0.0 0.0 0.0 0.0 0.0 0.0
0.0 0.0 0.0 0.0 0.0 0.0 0.0 0.0
0.0 0.0 0.0 0.0 0.0 0.0 0.0 0.0
0.0 0.0 0.0 0.0 0.0 0.0 0.0 0.0
0.0 0.0 0.0 0.0 0.0 0.0 0.0 0.0
0.0 0.0 0.0 0.0 0.0 0.0 0.0 0.0
0.0 0.0 0.0 0.0 0.0 0.0 0.0 0.0
0.0 0.0 0.0 0.0 0.0 0.0 0.0 0.0
0.0 0.0 0.0 0.0 0.0 0.0 0.0 0.0
0.0 0.0 0.0 0.0 0.0 0.0 0.0 0.0
0.0 0.0 0.0 0.0 0.0 0.0 0.0 0.0
0.0 0.0 0.0 0.0 0.0 0.0 0.0 0.0
0.0 0.0 0.0 0.0 0.0 0.0 0.0 0.0
0.0 0.0 0.0 0.0 0.0 0.0 0.0 0.0
0.0 0.0 0.0 0.0 0.0 0.0 0.0 0.0
0.0 0.0 0.0 0.0 0.0 0.0 0.0 0.0
0.0 0.0 0.0 0.0 0.0 0.0 0.0 0.0
0.0 0.0 0.0 0.0 0.0 0.0 0.0 0.0

tfl.pseudo_qconst26 i1 [1, 2, 1, 40] scale=0.101960786 zero_point=-128
00000000: 8080 8080 8080 8080 8080 8080 8080 8080
00000010: 8080 8080 8080 8080 8080 8080 8080 8080
00000020: 8080 8080 8080 8080 8080 8080 8080 8080
00000030: 8080 8080 8080 8080 8080 8080 8080 8080
00000040: 8080 8080 8080 8080 8080 8080 8080 8080
0.0 0.0 0.0 0.0 0.0 0.0 0.0 0.0
0.0 0.0 0.0 0.0 0.0 0.0 0.0 0.0
0.0 0.0 0.0 0.0 0.0 0.0 0.0 0.0
0.0 0.0 0.0 0.0 0.0 0.0 0.0 0.0
0.0 0.0 0.0 0.0 0.0 0.0 0.0 0.0
0.0 0.0 0.0 0.0 0.0 0.0 0.0 0.0
0.0 0.0 0.0 0.0 0.0 0.0 0.0 0.0
0.0 0.0 0.0 0.0 0.0 0.0 0.0 0.0
0.0 0.0 0.0 0.0 0.0 0.0 0.0 0.0
0.0 0.0 0.0 0.0 0.0 0.0 0.0 0.0

tfl.pseudo_qconst27 i1 [1, 4, 1, 32] scale=0.896496 zero_point=-128
00000000: 8080 8080 8080 8080 8080 8080 8080 8080
00000010: 8080 8080 8080 8080 8080 8080 8080 8080
00000020: 8080 8080 8080 8080 8080 8080 8080 8080
00000030: 8080 8080 8080 8080 8080 8080 8080 8080
00000040: 8080 8080 8080 8080 8080 8080 8080 8080
00000050: 8080 8080 8080 8080 8080 8080 8080 8080
00000060: 8080 8080 8080 8080 8080 8080 8080 8080
00000070: 8080 8080 8080 8080 8080 8080 8080 8080
0.0 0.0 0.0 0.0 0.0 0.0 0.0 0.0
0.0 0.0 0.0 0.0 0.0 0.0 0.0 0.0
0.0 0.0 0.0 0.0 0.0 0.0 0.0 0.0
0.0 0.0 0.0 0.0 0.0 0.0 0.0 0.0
0.0 0.0 0.0 0.0 0.0 0.0 0.0 0.0
0.0 0.0 0.0 0.0 0.0 0.0 0.0 0.0
0.0 0.0 0.0 0.0 0.0 0.0 0.0 0.0
0.0 0.0 0.0 0.0 0.0 0.0 0.0 0.0
0.0 0.0 0.0 0.0 0.0 0.0 0.0 0.0
0.0 0.0 0.0 0.0 0.0 0.0 0.0 0.0
0.0 0.0 0.0 0.0 0.0 0.0 0.0 0.0
0.0 0.0 0.0 0.0 0.0 0.0 0.0 0.0
0.0 0.0 0.0 0.0 0.0 0.0 0.0 0.0
0.0 0.0 0.0 0.0 0.0 0.0 0.0 0.0
0.0 0.0 0.0 0.0 0.0 0.0 0.0 0.0
0.0 0.0 0.0 0.0 0.0 0.0 0.0 0.0

tfl.pseudo_qconst28 i1 [1, 10, 1, 64] scale=0.03889163 zero_point=-128
00000000: 8080 8080 8080 8080 8080 8080 8080 8080
00000010: 8080 8080 8080 8080 8080 8080 8080 8080
00000020: 8080 8080 8080 8080 8080 8080 8080 8080
00000030: 8080 8080 8080 8080 8080 8080 8080 8080
00000040: 8080 8080 8080 8080 8080 8080 8080 8080
00000050: 8080 8080 8080 8080 8080 8080 8080 8080
00000060: 8080 8080 8080 8080 8080 8080 8080 8080
00000070: 8080 8080 8080 8080 8080 8080 8080 8080
00000080: 8080 8080 8080 8080 8080 8080 8080 8080
00000090: 8080 8080 8080 8080 8080 8080 8080 8080
000000a0: 8080 8080 8080 8080 8080 8080 8080 8080
000000b0: 8080 8080 8080 8080 8080 8080 8080 8080
000000c0: 8080 8080 8080 8080 8080 8080 8080 8080
000000d0: 8080 8080 8080 8080 8080 8080 8080 8080
000000e0: 8080 8080 8080 8080 8080 8080 8080 8080
000000f0: 8080 8080 8080 8080 8080 8080 8080 8080
0.0 0.0 0.0 0.0 0.0 0.0 0.0 0.0
0.0 0.0 0.0 0.0 0.0 0.0 0.0 0.0
0.0 0.0 0.0 0.0 0.0 0.0 0.0 0.0
0.0 0.0 0.0 0.0 0.0 0.0 0.0 0.0
0.0 0.0 0.0 0.0 0.0 0.0 0.0 0.0
0.0 0.0 0.0 0.0 0.0 0.0 0.0 0.0
0.0 0.0 0.0 0.0 0.0 0.0 0.0 0.0
0.0 0.0 0.0 0.0 0.0 0.0 0.0 0.0
0.0 0.0 0.0 0.0 0.0 0.0 0.0 0.0
0.0 0.0 0.0 0.0 0.0 0.0 0.0 0.0
0.0 0.0 0.0 0.0 0.0 0.0 0.0 0.0
0.0 0.0 0.0 0.0 0.0 0.0 0.0 0.0
0.0 0.0 0.0 0.0 0.0 0.0 0.0 0.0
0.0 0.0 0.0 0.0 0.0 0.0 0.0 0.0
0.0 0.0 0.0 0.0 0.0 0.0 0.0 0.0
0.0 0.0 0.0 0.0 0.0 0.0 0.0 0.0
0.0 0.0 0.0 0.0 0.0 0.0 0.0 0.0
0.0 0.0 0.0 0.0 0.0 0.0 0.0 0.0
0.0 0.0 0.0 0.0 0.0 0.0 0.0 0.0
0.0 0.0 0.0 0.0 0.0 0.0 0.0 0.0
0.0 0.0 0.0 0.0 0.0 0.0 0.0 0.0
0.0 0.0 0.0 0.0 0.0 0.0 0.0 0.0
0.0 0.0 0.0 0.0 0.0 0.0 0.0 0.0
0.0 0.0 0.0 0.0 0.0 0.0 0.0 0.0
0.0 0.0 0.0 0.0 0.0 0.0 0.0 0.0
0.0 0.0 0.0 0.0 0.0 0.0 0.0 0.0
0.0 0.0 0.0 0.0 0.0 0.0 0.0 0.0
0.0 0.0 0.0 0.0 0.0 0.0 0.0 0.0
0.0 0.0 0.0 0.0 0.0 0.0 0.0 0.0
0.0 0.0 0.0 0.0 0.0 0.0 0.0 0.0
0.0 0.0 0.0 0.0 0.0 0.0 0.0 0.0
0.0 0.0 0.0 0.0 0.0 0.0 0.0 0.0

tfl.pseudo_qconst29 i1 [1, 14, 1, 64] scale=0.040377233 zero_point=-128
00000000: 8080 8080 8080 8080 8080 8080 8080 8080
00000010: 8080 8080 8080 8080 8080 8080 8080 8080
00000020: 8080 8080 8080 8080 8080 8080 8080 8080
00000030: 8080 8080 8080 8080 8080 8080 8080 8080
00000040: 8080 8080 8080 8080 8080 8080 8080 8080
00000050: 8080 8080 8080 8080 8080 8080 8080 8080
00000060: 8080 8080 8080 8080 8080 8080 8080 8080
00000070: 8080 8080 8080 8080 8080 8080 8080 8080
00000080: 8080 8080 8080 8080 8080 8080 8080 8080
00000090: 8080 8080 8080 8080 8080 8080 8080 8080
000000a0: 8080 8080 8080 8080 8080 8080 8080 8080
000000b0: 8080 8080 8080 8080 8080 8080 8080 8080
000000c0: 8080 8080 8080 8080 8080 8080 8080 8080
000000d0: 8080 8080 8080 8080 8080 8080 8080 8080
000000e0: 8080 8080 8080 8080 8080 8080 8080 8080
000000f0: 8080 8080 8080 8080 8080 8080 8080 8080
0.0 0.0 0.0 0.0 0.0 0.0 0.0 0.0
0.0 0.0 0.0 0.0 0.0 0.0 0.0 0.0
0.0 0.0 0.0 0.0 0.0 0.0 0.0 0.0
0.0 0.0 0.0 0.0 0.0 0.0 0.0 0.0
0.0 0.0 0.0 0.0 0.0 0.0 0.0 0.0
0.0 0.0 0.0 0.0 0.0 0.0 0.0 0.0
0.0 0.0 0.0 0.0 0.0 0.0 0.0 0.0
0.0 0.0 0.0 0.0 0.0 0.0 0.0 0.0
0.0 0.0 0.0 0.0 0.0 0.0 0.0 0.0
0.0 0.0 0.0 0.0 0.0 0.0 0.0 0.0
0.0 0.0 0.0 0.0 0.0 0.0 0.0 0.0
0.0 0.0 0.0 0.0 0.0 0.0 0.0 0.0
0.0 0.0 0.0 0.0 0.0 0.0 0.0 0.0
0.0 0.0 0.0 0.0 0.0 0.0 0.0 0.0
0.0 0.0 0.0 0.0 0.0 0.0 0.0 0.0
0.0 0.0 0.0 0.0 0.0 0.0 0.0 0.0
0.0 0.0 0.0 0.0 0.0 0.0 0.0 0.0
0.0 0.0 0.0 0.0 0.0 0.0 0.0 0.0
0.0 0.0 0.0 0.0 0.0 0.0 0.0 0.0
0.0 0.0 0.0 0.0 0.0 0.0 0.0 0.0
0.0 0.0 0.0 0.0 0.0 0.0 0.0 0.0
0.0 0.0 0.0 0.0 0.0 0.0 0.0 0.0
0.0 0.0 0.0 0.0 0.0 0.0 0.0 0.0
0.0 0.0 0.0 0.0 0.0 0.0 0.0 0.0
0.0 0.0 0.0 0.0 0.0 0.0 0.0 0.0
0.0 0.0 0.0 0.0 0.0 0.0 0.0 0.0
0.0 0.0 0.0 0.0 0.0 0.0 0.0 0.0
0.0 0.0 0.0 0.0 0.0 0.0 0.0 0.0
0.0 0.0 0.0 0.0 0.0 0.0 0.0 0.0
0.0 0.0 0.0 0.0 0.0 0.0 0.0 0.0
0.0 0.0 0.0 0.0 0.0 0.0 0.0 0.0
0.0 0.0 0.0 0.0 0.0 0.0 0.0 0.0
